Intro PyTorch/cifar_net.pth (torch_old, 249562 bytes, 10 tensors)

conv1.weight f4 [6, 3, 5, 5]
-0.2666018 -0.27947557 -0.38881832 -0.29456732 -0.29714674 -0.16903001 -0.40544116 -0.28703323
-0.41689134 -0.32041705 0.19261137 0.19470982 0.089589134 0.15110591 0.012017522 0.05696321
0.3214715 0.34269047 0.20085537 0.17144316 0.24065873 0.20648432 0.11999658 0.24677464
0.21319833 -0.07994384 -0.081057325 -0.20038165 -0.12981805 -0.0019115246 -0.14050278 -0.25191244
-0.32062185 -0.2535292 -0.12789802 0.124499045 0.2195388 0.07107906 0.111123085 -0.05879068
0.048182182 0.011924025 0.09871872 0.105140954 0.045977723 -0.06646912 -0.088970564 0.12518871
0.03334909 0.036844485 0.07121392 -0.00020155133 -0.0031828529 0.04053432 0.0931086 0.17150785
0.00046620268 -0.122050665 -0.080174126 0.024893828 0.031698957 0.12508222 0.15440781 0.0006374308
-0.03928101 0.10854886 -0.00048232454 0.068107665 0.020909928 0.07921029 -0.047289006 0.08928351
0.005411607 0.035214987 0.05190069 -0.082692586 -0.19460076 -0.086735845 -0.1142445 0.040353082
-0.24196178 -0.13396174 -0.015603209 0.013358169 -0.048961528 -0.2842962 -0.24332792 -0.11017337
-0.08318129 -0.025172653 -0.22177467 -0.10893519 -0.10227747 -0.057154454 -0.18465997 -0.09105478
-0.041532863 -0.0050594285 -0.15999955 -0.044429038 -0.124666214 0.052482422 0.026850384 0.038413387
-0.028020395 -0.05206499 0.1036971 -0.020655498 0.05929651 -0.0911128 -0.003610145 0.0369694
0.15711692 0.09545718 0.044031896 -0.04521885 -0.033513714 0.080279164 0.10356862 -0.039137155
-0.075767584 -0.05174372 0.056276977 -0.01693285 -0.13736041 0.14755918 0.26748294 0.24342865
0.1884389 0.06783521 0.20164384 0.1676845 0.26750863 0.09710099 0.15705763 0.06600636
0.38088092 0.3130737 0.15139194 -0.036112852 0.108631596 0.2953489 0.21052745 0.21368949
-0.004434021 0.096870236 0.19904216 0.27392894 0.16125686 -0.109896794 0.17908908 -0.0063666725
-0.1900444 -0.16728592 0.24323082 0.087180026 0.14058459 -0.449114 -0.20297469 0.2703723
0.31022766 0.07804998 -0.4349409 -0.18284091 0.26900238 0.13205062 0.2028882 -0.43252498
-0.08515469 0.1785483 0.102799945 0.15400323 -0.1061773 -0.13260587 0.052437138 0.048603144
-0.0099281855 -0.43878385 -0.15865646 0.04934342 0.34695673 0.12061467 -0.46977115 -0.14309706
0.34414116 0.3053717 0.10551286 -0.6431633 -0.28997445 0.44717562 0.22716723 0.057056516
-0.34755412 -0.23779164 0.3192335 0.18633844 0.12581751 -0.24683402 -0.1214205 0.13644406
0.22486097 -0.075170174 -0.251484 -0.02569392 0.21949363 0.31617588 0.14818023 -0.52622515
-0.100316025 0.23619239 0.2636337 0.20292486 -0.36031058 -0.171393 0.2570189 0.21476561
0.13539942 -0.29341164 -0.21107553 0.2448218 0.20023885 0.16193207 -0.13603982 -0.09871092
0.10404757 0.117470644 -0.20693542 -0.11860631 -0.096356586 0.19678625 0.009316417 0.09506918
-0.08620881 -0.07759803 -0.043526188 0.10136223 0.2108744 0.3761691 0.08863913 0.019513227
-0.37629712 -0.3717913 -0.3203647 -0.2860017 -0.36246464 -0.16751929 -0.22241245 -0.29589763
-0.23979044 -0.16799106 -0.048275206 -0.2572366 -0.12222243 -0.17887735 -0.04740833 0.29046258
00000000: 0880 88be 6c17 8fbe 3213 c7be 87d1 96be
00000010: 9e23 98be 3416 2dbe fc95 cfbe 05f6 92be
00000020: c872 d5be b40d a4be ea3b 453e 0362 473e
00000030: 827a b73d 82bb 1a3e 24e5 443c 4152 693d
00000040: ea97 a43e 2075 af3e 08ad 4d3e cc8e 2f3e
00000050: 3e6f 763e a070 533e c4c0 f53d 7eb2 7c3e
00000060: aa50 5a3e 99b9 a3bd 6201 a6bd d930 4dbe
00000070: 06ef 04be 1f8c faba f6df 0fbe abfa 80be
00000080: 8c28 a4be 94ce 81be b3f7 02be 5bf9 fe3d
00000090: c7ce 603e e691 913d 8094 e33d 7fce 70bd
000000a0: ae5a 453d fc5c 433c 0a2d ca3d 2454 d73d
000000b0: 2353 3c3d f620 88bd 3336 b6bd 7831 003e
000000c0: 0e99 083d 3eea 163d 9bd8 913d 8657 53b9
000000d0: 6997 50bb 5107 263d b9af be3d c19f 2f3e
000000e0: aa6c f439 b3f5 f9bd 5532 a4bd 24ee cb3c
000000f0: c4d6 013d 8e15 003e 151d 1e3e 4219 273a
00000100: 20e5 20bd dd4e de3d 81e0 fcb9 087c 8b3d
00000110: 4c4b ab3c 0139 a23d 1eb2 41bd 46da b63d
00000120: da53 b13b 973d 103d d195 543d bb5a a9bd
00000130: 6c45 47be 90a2 b1bd 05f9 e9bd 4649 253d
00000140: d4c4 77be 442d 09be 9aa4 7fbc 39dc 5a3c
00000150: e28b 48bd 468f 91be f42a 79be 93a2 e1bd
00000160: f45a aabd e136 cebc e618 63be 6a19 dfbd
00000170: da76 d1bd ca1a 6abd 8117 3dbe ee7a babd
00000180: 5d1e 2abd 90c9 a5bb ecd6 23be 39fb 35bd
00000190: 0051 ffbd cff7 563d 56f5 db3c 5b57 1d3d
000001a0: 078b e5bc 1942 55bd 255f d43d b835 a9bc
000001b0: e6e0 723d 5999 babd 2f98 6cbb 3a6d 173d
000001c0: 42e3 203e 0e7f c33d ca5a 343d 6737 39bd
000001d0: ad45 09bd 6769 a43d c91b d43d 484e 20bd
000001e0: 092c 9bbd 39f1 53bd b082 663d c3b6 8abc
000001f0: 35a8 0cbe c119 173e 86f3 883e 5c45 793e
00000200: 21f6 403e 30ed 8a3d b97b 4e3e 7cb5 2b3e
00000210: e4f6 883e e2dc c63d b7d3 203e 582e 873d
00000220: d302 c33e 324b a03e 7d06 1b3e 12eb 13bd
00000230: 3e7a de3d f937 973e 8294 573e 6bd1 5a3e
00000240: 444b 91bb e763 c63d b5d1 4b3e 6a40 8c3e
00000250: 8520 253e 9211 e1bd 2163 373e 859f d0bb
00000260: 009b 42be 004d 2bbe 8011 793e 718b b23d
00000270: 68f5 0f3e 45f2 e5be 99d8 4fbe 3d6e 8a3e
00000280: 29d6 9e3e abd8 9f3d 93b0 debe a63a 3bbe
00000290: aeba 893e 4738 073e edc1 4f3e ea73 ddbe
000002a0: 9565 aebd 5ed5 363e c788 d23d 06b3 1d3e
000002b0: 7c73 d9bd d5c9 07be 53c8 563d 1714 473d
000002c0: d4a9 22bc 47a8 e0be d776 22be 531c 4a3d
000002d0: 50a4 b13e d304 f73d d885 f0be 0988 12be
000002e0: 4533 b03e ae59 9c3e 2017 d83d 5aa6 24bf
000002f0: 8877 94be 34f4 e43e 879e 683e 18b4 693d
00000300: 9df2 b1be a77f 73be 9372 a33e 81cf 3e3e
00000310: 4ed6 003e 0fc2 7cbe 50ab f8bd feb7 0b3e
00000320: f441 663e d2f2 99bd 83c2 80be 0e7c d2bc
00000330: f0c2 603e cee1 a13e 8fbc 173e b1b6 06bf
00000340: 7d72 cdbd 6bdc 713e fffa 863e 89cb 4f3e
00000350: a17a b8be a681 2fbe fb97 833e 84eb 5b3e
00000360: 25a6 0a3e 0d3a 96be 2f24 58be 91b2 7a3e
00000370: 6a0b 4d3e 85d1 253e 064e 0bbe f328 cabd
00000380: e416 d53d 7394 f03d e1e6 53be dde7 f2bd
00000390: 9a56 c5bd 5682 493e e3a3 183c a1b3 c23d
000003a0: 3f8e b0bd b7eb 9ebd 8448 32bd 0097 cf3d
000003b0: 75ef 573e 3c99 c03e 6f88 b53d 34da 9f3c
000003c0: 04aa c0be 6e5b bebe d806 a4be d16e 92be
000003d0: f794 b9be 2d8a 2bbe 17c0 63be e57f 97be
000003e0: a08b 75be d905 2cbe 39bc 45bd 84b4 83be
000003f0: c14f fabd a02b 37be 3d2f 42bd 83b7 943e

conv1.bias f4 [6]
-0.43627328 0.3531436 -0.19981211 -0.21759956 -0.16548234 -0.51241463
00000000: 365f dfbe 3dcf b43e 8c9b 4cbe 6bd2 5ebe
00000010: 3474 29be 9b2d 03bf

conv2.weight f4 [16, 6, 5, 5]
0.08648328 0.03822186 0.10811757 -0.036651287 0.03404028 0.025692806 0.03173134 0.01409255
0.16871636 0.078769594 -0.007117115 0.029298412 -0.0048610196 0.10105379 0.11414474 -0.037920035
0.010473354 -0.1137924 0.006076149 0.045133878 -0.042109538 -0.0523344 0.05419681 0.009953911
-0.002209804 -0.17330052 -0.11155284 -0.011020506 -0.09976078 0.027826391 -0.107186586 -0.17311457
-0.08091087 -0.17137824 -0.09263183 -0.13828859 -0.1662566 -0.055244487 -0.18113972 0.033180114
-0.13079964 -0.12837797 -0.088916264 -0.16058074 -0.10863926 -0.26862544 -0.18710999 -0.12917253
-0.18792671 -0.065925606 -0.11933246 0.042438462 -0.009016728 0.13533989 -0.16899377 -0.12264287
-0.13799413 0.07283689 0.00914737 0.042427804 -0.03712607 -0.10920813 0.043214425 -0.016315868
0.22837795 -0.028110847 0.040608358 0.11269983 -0.017375777 0.20821281 0.19076023 0.091034964
-0.0074554533 0.06006493 0.111698724 -0.20438127 -0.15233484 -0.11880905 0.038731974 0.06946369
-0.2411759 -0.17549908 -0.16508031 -0.025018763 0.050395075 -0.24175653 -0.20850758 -0.07245791
-0.04940838 -0.010851673 0.08478353 -0.022320407 -0.06145986 0.015374002 0.131737 0.025502339
-0.008337625 -0.0148597 0.042638987 0.13807037 0.064138226 0.049190268 -0.2703048 0.030031329
-0.23322894 0.06353932 0.005306321 0.12018477 -0.024777725 -0.37578467 0.046870664 -0.004657765
0.13264944 -0.17600448 0.14336503 0.11401925 -0.0041333935 0.059504367 0.041600667 -0.16432445
0.21742354 0.10690899 0.01198439 -0.015470374 0.008651824 -0.082232796 -0.031105837 0.0359608
0.16966683 0.17216572 -0.11869202 -0.058126837 -0.024533955 -0.073085815 0.20214728 -0.13776498
-0.17478101 -0.004458759 -0.04429166 0.065022685 -0.1831349 -0.17309467 -0.17567496 0.026875176
-0.031679653 -0.22026649 -0.1825549 -0.104033224 0.058772318 0.094443746 -0.026850665 0.043841787
-0.08939747 0.03550442 0.009962441 -0.14835426 -0.18769626 -0.094331615 -0.12269803 -0.18583304
0.048817728 -0.17850903 -0.23160908 -0.20281874 -0.2296973 0.11665354 -0.16024941 -0.20650624
-0.19936427 -0.15232717 -0.13591124 0.203662 0.23288018 -0.008887174 -0.02367945 -0.02014273
0.0072276383 0.050779887 -0.029779157 0.024406638 -0.17817616 -0.027580304 0.1454848 0.13727726
0.17862865 -0.26197278 -0.040903956 0.083681725 0.1895685 0.033277385 -0.16640961 -0.23794454
-0.15379262 -0.04982312 -0.052874293 -0.03204534 -0.14251313 -0.009615154 -0.051761746 -0.07941443
-0.3740471 -0.099241994 0.022361273 -0.21531706 -0.1327657 0.018822877 0.022972504 -0.12233334
-0.08758186 0.041280616 0.40142772 -0.062044837 0.020166444 0.1487332 0.12870394 0.22287518
0.17008498 0.23714668 0.028882569 -0.049058452 -0.11782102 0.13925001 0.047106765 -0.22993654
-0.1983147 0.08406961 0.025479836 0.0015688635 -0.05076935 0.01481429 -0.049848713 0.09228683
0.02045967 0.045834422 -0.067172304 -0.19067986 0.07475296 0.1500982 -0.016156984 -0.036162637
-0.077775896 0.08872037 0.14753318 0.26499125 0.13390255 0.01024481 0.16227612 0.028756777
0.016813586 0.10910018 0.26362237 -0.08964642 -0.09577523 0.063898474 -0.20576082 -0.012729474
00000000: 251e b13d 868e 1c3d bf6c dd3d a91f 16bd
00000010: d26d 0b3d b879 d23c b9f8 013d 70e4 663c
00000020: fbc3 2c3e f451 a13d b036 e9bb 3903 f03c
00000030: 3049 9fbb 4af5 ce3d b8c4 e93d 0a52 1bbd
00000040: 6e98 2b3c fd0b e9bd 6f1a c73b 4dde 383d
00000050: 0d7b 2cbd 995c 56bd 79fd 5d3d bb15 233c
00000060: 5cd2 10bb b175 31be d175 e4bd 5a8f 34bc
00000070: 614f ccbd 2cf4 e33c a484 dbbd f244 31be
00000080: 99b4 a5bd c77d 2fbe c2b5 bdbd 869b 0dbe
00000090: 2c3f 2abe 0b48 62bd b17c 39be dfe7 073d
000000a0: 57f0 05be 8475 03be bb19 b6bd 476f 24be
000000b0: 437e debd 4689 89be c399 3fbe ce45 04be
000000c0: dc6f 40be 0104 87bd 9464 f4bd f4d3 2d3d
000000d0: e6ba 13bc 8a96 0a3e b40c 2dbe 2f2c fbbd
000000e0: 554e 0dbe 822b 953d dade 153c c7c8 2d3d
000000f0: 8211 18bd 83a8 dfbd 9c01 313d dba8 85bc
00000100: e9db 693e b848 e6bc f354 263d 2bcf e63d
00000110: a557 8ebc bd35 553e a656 433e 8a70 ba3d
00000120: e04c f4bb a506 763d 4dc2 e43d 5349 51be
00000130: aafd 1bbe 2952 f3bd 6ba5 1e3d fb42 8e3d
00000140: d1f6 76be 08b6 33be d00a 29be 26f4 ccbc
00000150: 116b 4e3d 068f 77be 0383 55be d064 94bd
00000160: 7160 4abd 37cb 31bc fda2 ad3d 49d9 b6bc
00000170: 56bd 7bbd 3de3 7b3c 10e6 063e 48ea d03c
00000180: 899a 08bc 1976 73bc 38a6 2e3d 5262 0d3e
00000190: e75a 833d bc7b 493d 6465 8abe 4304 f63c
000001a0: 91d3 6ebe e720 823d a6e0 ad3b 6f23 f63d
000001b0: a8fa cabc d966 c0be 74fb 3f3d 2aa0 98bb
000001c0: 41d5 073e 853a 34be 48ce 123e ed82 e93d
000001d0: 6b71 87bb daba 733d 7665 2a3d ab44 28be
000001e0: 47a4 5e3e 1af3 da3d 2d5a 443c 7477 7dbc
000001f0: 61c0 0d3c ab69 a8bd abd1 febc a24b 133d
00000200: 24bd 2d3e 364c 303e cd14 f3bd 6816 6ebd
00000210: 6ffb c8bc 04ae 95bd b2ff 4e3e 4312 0dbe
00000220: cbf9 32be c81a 92bb 2c6b 35bd 9d2a 853d
00000230: b787 3bbe bb3f 31be 23e4 33be 5429 dc3c
00000240: 86c2 01bd 8a8d 61be acef 3abe 5f0f d5bd
00000250: 3ebb 703d b96b c13d edf5 dbbc 7293 333d
00000260: 0516 b7bd 156d 113d 8239 233c 2eea 17be
00000270: 7333 40be ef30 c1bd 1b49 fbbd 044b 3ebe
00000280: 19f5 473d 12cb 36be ee2a 6dbe b7af 4fbe
00000290: c535 6bbe 0de8 ee3d 6c18 24be 5f76 53be
000002a0: 2626 4cbe a7fb 1bbe 512c 0bbe c58c 503e
000002b0: 2478 6e3e 829b 11bc 68fb c1bc 5e02 a5bc
000002c0: d3d5 ec3b 92fe 4f3d 6bf3 f3bc 6ef0 c73c
000002d0: d073 36be 17f0 e1bc f8f9 143e 6992 0c3e
000002e0: 6eea 363e 4c21 86be e88a 27bd 5361 ab3d
000002f0: 3f1e 423e de4d 083d 4867 2abe bca7 73be
00000300: d07b 1dbe 5413 4cbd b792 58bd f941 03bd
00000310: f6ee 11be e188 1dbc 2004 54bd 08a4 a2bd
00000320: 1a83 bfbe 633f cbbd fd2e b73c 137c 5cbe
00000330: bbf3 07be 6f32 9a3c d530 bc3c e789 fabd
00000340: 1e5e b3bd dd15 293d ef87 cd3e ba22 7ebd
00000350: 1934 a53c 844d 183e f7ca 033e 6439 643e
00000360: c22a 2e3e 94d6 723e 239b ec3c 84f1 48bd
00000370: 264c f1bd 8e97 0e3e 06f3 403d 7c74 6bbe
00000380: 0213 4bbe b02c ac3d 17bb d03c 53a2 cd3a
00000390: 86f3 4fbd a3b7 723c 2a2e 4cbd e100 bd3d
000003a0: 0a9b a73c e0bc 3b3d a291 89bd 9541 43be
000003b0: 1418 993d 58b3 193e a75b 84bc 461f 14bd
000003c0: f848 9fbd 06b3 b53d f012 173e efac 873e
000003d0: c01d 093e d9d9 273c b62b 263e 5593 eb3c
000003e0: a5bc 893c ea6f df3d 83f9 863e 8b98 b7bd
000003f0: ce25 c4bd 34dd 823d f7b2 52be 498f 50bc

conv2.bias f4 [16]
1.1968068 -0.7600824 -0.2835527 0.51031446 -0.06939213 0.33936515 0.09075079 0.5795986
0.15400974 -0.6201207 -0.51425326 0.18797334 -0.25698885 -0.046973694 -0.30593574 0.16962361
00000000: f730 993f c394 42bf d22d 91be f8a3 023f
00000010: 761d 8ebd 45c1 ad3e 8ddb b93d 9360 143f
00000020: bbb4 1d3e 3bc0 1ebf 1aa6 03bf 157c 403e
00000030: 0b94 83be 7d67 40bd 9ca3 9cbe d0b1 2d3e

fc1.weight f4 [120, 400]
-0.06037629 -0.005530408 -0.019599266 -0.042341612 -0.03683891 -0.0042586406 0.03161935 -0.02971789
-0.06191491 -0.042346865 -0.019004151 0.01041254 -0.060900487 0.006520009 0.01278978 -0.0071372413
-0.0302775 -0.031599592 0.02905268 -0.006608385 -0.03675477 -0.009262534 0.014152846 0.048008647
0.034361124 0.035922006 0.063453525 0.017136822 -0.05755198 0.012198712 -0.023143068 -0.031701405
-0.016895592 0.01665738 -0.05587688 -0.057155114 0.018014682 -0.065112196 -0.07692377 -0.0007773473
0.023410754 -0.032721486 -0.01706496 -0.040801756 -0.045815933 -0.005791885 -0.0029927273 0.045079563
0.04730498 0.037047494 -0.038474623 -0.055191007 -0.026589653 -0.037459318 -0.012139116 -0.039693523
0.021159094 -0.05284602 -0.008095687 0.0018217096 0.004517856 -0.004800189 -0.011076409 -0.02564989
0.01526058 0.04437303 0.039340034 0.00023603477 -0.007729206 0.044064637 0.05757405 -0.0005512909
0.025497956 0.055230256 0.0018439955 0.0054281377 -0.0053066113 0.025896506 0.033803962 0.01970261
-0.054224826 -0.019581588 0.017053317 0.004418542 -0.034858875 0.0073937494 0.041976113 0.05744545
0.014337244 -0.0045887595 0.033703376 0.025385937 0.010882309 -0.022983799 -0.020653257 0.049997695
-0.024513332 -0.03573137 0.036304276 -0.01614382 0.038917076 -0.004675049 0.04666253 -0.04252574
-0.037479457 -0.032634456 0.029619621 0.014464481 -0.022034833 0.050592393 -0.050428502 0.02697587
-0.04134575 0.023046661 0.0013948175 -0.058424693 0.0093344515 -0.016220761 -0.034174785 0.024937337
0.002145298 -0.0022787629 -0.04451743 -0.012954243 -0.026889589 0.025039786 -0.015221956 0.012315312
-0.010606696 0.0058220294 0.041682735 0.029626234 0.027062053 0.02508292 -0.029519811 0.026387703
0.05162954 0.0057027983 0.048627995 -0.039206132 -0.02147103 -0.00842408 0.00077213265 -0.023809256
0.028960133 0.017051676 0.004368341 0.087902166 0.094024666 0.051653527 -0.07196256 -0.028609924
-0.014391303 -0.026717942 -0.01625699 -0.032388598 -0.05057892 -0.034297973 -0.041544683 0.02486631
0.025513645 0.026125925 -0.0398568 0.014267494 0.038495783 -0.0076075923 -0.03624871 -0.048468385
-0.0050303275 0.012935276 0.020097317 0.018799463 -0.024034904 0.0013214552 0.0816559 0.03407838
0.013921795 0.05424353 0.044883803 0.027575228 0.049225774 -0.028687323 0.01761636 0.04699516
0.027438868 0.004236976 -0.030321572 0.051065587 0.004599237 0.04825831 0.035188682 0.022796411
0.040260155 0.058264647 0.011992294 -0.03859948 -0.061845455 -0.016126921 -0.00024005826 -0.021832755
0.039663333 -0.040110506 -0.043199923 0.0035324015 0.0376735 -0.00029581596 0.04016681 0.01450379
0.0039427066 -0.025010569 0.035210796 0.040847894 -0.047575098 0.039598525 -0.010553306 0.017886108
0.0328486 0.032756075 0.06193218 0.023346672 0.02958669 -0.010535062 0.0059631746 0.016997166
0.03878665 0.035244532 -0.044960257 0.043454327 0.022926252 0.0508318 -0.01825076 0.009665057
0.04441813 0.03878513 0.022992855 -0.003215387 -0.030005304 -0.010311405 0.026752815 -0.040554535
0.015847338 -0.034938768 0.022082947 0.043237098 0.03032869 0.04970549 -0.012512355 -0.02672502
0.054979004 0.049605064 0.06774857 -0.01841094 0.0042003933 0.010610342 0.025295498 0.080083154
00000000: 214d 77bd 6d38 b5bb a48e a0bc 666e 2dbd
00000010: 66e4 16bd 118c 8bbb 4b83 013d ef72 f3bc
00000020: 7d9a 7dbd e873 2dbd 98ae 9bbc 5c99 2a3c
00000030: ca72 79bd cda5 d53b 3a8c 513c 85df e9bb
00000040: 8508 f8bc 936e 01bd e3ff ed3c 278b d8bb
00000050: 2b8c 16bd e2c1 17bc 57e1 673c b7a4 443d
00000060: 40be 0c3d f422 133d ecf3 813d 8562 8c3c
00000070: a0bb 6bbd 1bdd 473c 8896 bdbc 55d9 01bd
00000080: a068 8abc 0f75 883c 28df 64bd 7b1b 6abd
00000090: 8793 933c 8b59 85bd 368a 9dbd e5c6 4bba
000000a0: e9c7 bf3c f706 06bd d1cb 8bbc be1f 27bd
000000b0: 7da9 3bbd dac9 bdbb a221 44bb 59a5 383d
000000c0: dec2 413d 1dbf 173d 9197 1dbd f70f 62bd
000000d0: 8bd2 d9bc f16e 19bd 25e3 46bc ad95 22bd
000000e0: d655 ad3c 1175 58bd c6a3 04bc 6ec6 ee3a
000000f0: 860a 943b e74a 9dbb d479 35bc b81f d2bc
00000100: 8307 7a3c 7fc0 353d 0423 213d 1a80 7739
00000110: 4745 fdbb 1f7d 343d c4d2 6b3d 8284 10ba
00000120: 17e1 d03c 1f39 623d 39b2 f13a 85de b13b
00000130: 15e3 adbb e924 d43c 0676 0a3d 5e67 a13c
00000140: da1a 5ebd 9169 a0bc 66b3 8b3c 6bc9 903b
00000150: 2ec8 0ebd 4447 f23b 25ef 2b3d ec4b 6b3d
00000160: c3e6 6a3c 4e5d 96bb 8d0c 0a3d 2bf6 cf3c
00000170: b64b 323c 8548 bcbc 0531 a9bc 62ca 4c3d
00000180: 2fd0 c8bc 0f5b 12bd cbb3 143d 0b40 84bc
00000190: 8367 1f3d 2731 99bb 3621 3f3d 782f 2ebd
000001a0: 0f84 19bd b5ab 05bd d9a4 f23c 6efc 6c3c
000001b0: 6582 b4bc f839 4f3d 1e8e 4ebd 80fc dc3c
000001c0: 295a 29bd 5acc bc3c 4fd2 b63a bb4e 6fbd
000001d0: 87ef 183c 67e1 84bc dcfa 0bbd 6349 cc3c
000001e0: 2198 0c3b 4c57 15bb e957 36bd 093e 54bc
000001f0: 8e47 dcbc 3d20 cd3c 8365 79bc 2ac6 493c
00000200: b5c7 2dbc b9c6 be3b 84bb 2a3d b7b2 f23c
00000210: 3db1 dd3c b27a cd3c 88d3 f1bc 062b d83c
00000220: 7f79 533d 8ade ba3b 262e 473d 9c96 20bd
00000230: 03e4 afbc 2705 0abc f268 4a3a a10b c3bc
00000240: cd3d ed3c f5af 8b3c 4d24 8f3b 0d06 b43d
00000250: 0190 c03d a692 533d 1b61 93bd 5c5f eabc
00000260: 80c9 6bbc 96df dabc 612d 85bc e8a9 04bd
00000270: d72b 4fbd 087c 0cbd c22a 2abd 6fb4 cb3c
00000280: fe01 d13c 0906 d63c e240 23bd 35c2 693c
00000290: c1ad 1d3d 1c49 f9bb 8779 14bd c986 46bd
000002a0: 72d5 a4bb 7bee 533c 21a3 a43c 5501 9a3c
000002b0: d9e4 c4bc ae34 ad3a 353b a73d c595 0b3d
000002c0: 3e18 643c 772e 5e3d 14d8 373d 72e5 e13c
000002d0: f7a0 493d ad01 ebbc 2f50 903c ff7d 403d
000002e0: 7ac7 e03c 55d6 8a3b f264 f8bc 262a 513d
000002f0: 32b5 963b 81aa 453d 0222 103d 8abf ba3c
00000300: d5e7 243d e9a6 6e3d 547b 443c 7d1a 1ebd
00000310: a951 7dbd 9b1c 84bc 26b8 7bb9 9bda b2bc
00000320: 0576 223d ea4a 24bd 67f2 30bd dd7f 673b
00000330: 874f 1a3d bf17 9bb9 f485 243d 4ea1 6d3c
00000340: d231 813b f7e2 ccbc 3239 103d 1f50 273d
00000350: 1bde 42bd 1032 223d c6e7 2cbc e385 923c
00000360: 418c 063d 3c2b 063d 99ac 7d3d 8541 bf3c
00000370: c95f f23c 419b 2cbc bc66 c33b a43d 8b3c
00000380: c0de 1e3d 925c 103d 3f28 38bd 2afd 313d
00000390: d6cf bb3c 0135 503d 9e82 95bc 305a 1e3c
000003a0: c9ef 353d 28dd 1e3d 835b bc3c 3eb9 52bb
000003b0: afcd f5bc 2bf1 28bc b828 db3c 831c 26bd
000003c0: 47d2 813c f41b 0fbd 4ce7 b43c 6219 313d
000003d0: df73 f83c fc97 4b3d 9f00 4dbc 6eee dabc
000003e0: aa31 613d ae2e 4b3d c3bf 8a3d 8ad2 96bc
000003f0: 74a3 893b 00d7 2d3c 8138 cf3c a302 a43d

fc1.bias f4 [120]
0.009873941 0.059518367 0.03870367 0.0017745087 -0.00046304808 -0.025162432 -0.2048381 0.023121387
-0.012959292 -0.09177036 0.021387467 -0.077490024 0.033670593 0.07167154 -0.177829 -0.047776453
-0.017299224 -0.03909332 0.045923915 0.052372925 0.028501762 0.06167107 0.11001894 0.027577503
-0.053456828 -0.090801805 0.1083758 -0.15076204 0.18647815 -0.0047463747 0.09712172 0.20963456
-0.03319824 0.028181769 0.18738368 -0.08387517 -0.042136215 0.19410944 0.14612433 0.15051311
-0.023620734 0.07923034 -0.011879884 -0.008482041 -0.07578324 -0.001695122 0.025887115 -0.054503318
0.019781742 0.13256583 0.07826941 -0.0041257264 -0.006712065 -0.12926419 -0.025555916 0.1506861
0.14752768 -0.042283315 0.091260664 0.02441974 -0.09647749 0.012227754 0.06202067 0.18862994
-0.07165573 0.113067545 0.104321904 -0.01687522 0.04238488 -0.047916368 0.15878123 0.056088798
-0.017006082 0.08511785 0.08789704 0.061999623 0.0029711958 -0.0013076308 0.18552002 0.14158063
0.07143833 -0.029347014 0.0022468162 0.024071451 0.106351115 0.06478223 0.06537037 0.18105568
0.00886246 -0.10583207 -0.011585174 -0.00229392 0.060157496 0.044593643 0.23877446 0.0794876
0.0660623 -0.021029247 -0.061954595 0.057298012 0.10899371 0.2374147 0.066828355 -0.028965607
-0.025508469 0.11382681 0.079889 0.041558545 0.10295652 0.016409485 0.09256768 -0.0056123007
0.06328084 0.12910414 0.026448911 -0.010679901 -0.061008535 0.079921305 0.08736539 0.07163256
00000000: 4fc6 213c 88c9 733d bd87 1e3d a296 e83a
00000010: 43c5 f2b9 7221 cebc 14c1 51be 1069 bd3c
00000020: 3653 54bc 19f2 bbbd c534 af3c 17b3 9ebd
00000030: 2dea 093d 87c8 923d ce18 36be 3eb1 43bd
00000040: 1ab7 8dbc 5120 20bd b71a 3c3d fe84 563d
00000050: 877c e93c ce9a 7c3d 9c51 e13d 37ea e13c
00000060: 8cf5 5abd 4cf6 b9bd 22f4 dd3d 5d61 1abe
00000070: 21f4 3e3e 7a87 9bbb c1e7 c63d 71aa 563e
00000080: e1fa 07bd 74dd e63c 82e1 3f3e bfc6 abbd
00000090: 0697 2cbd a0c4 463e 9ea1 153e 1c20 1a3e
000000a0: 4580 c1bc 8443 a23d d8a3 42bc 42f8 0abc
000000b0: 3e34 9bbd db2e deba 3711 d43c df3e 5fbd
000000c0: 520d a23c 56bf 073e b64b a03d 1a31 87bb
000000d0: e2f0 dbbb d55d 04be a45a d1bc 754d 1a3e
000000e0: 7f11 173e 4531 2dbd dfe6 ba3d e80b c83c
000000f0: fe95 c5bd eb56 483c 6309 7e3d 3528 413e
00000100: 3dc0 92bd f58f e73d b9a6 d53d e73d 8abc
00000110: c59b 2d3d f443 44bd 8c97 223e 5ebd 653d
00000120: 5750 8bbc 4452 ae3d 5d03 b43d 51f3 7d3d
00000130: 65b8 423b cf64 abba f6f8 3d3e 83fa 103e
00000140: 424e 923d 2669 f0bc 523f 133b 7e31 c53c
00000150: 9dce d93d 8cac 843d e7e0 853d a966 393e
00000160: da33 113c 7cbe d8bd becf 3dbc 9755 16bb
00000170: b567 763d d3a7 363d 4b81 743e 65ca a23d
00000180: ac4b 873d 8745 acbc 1ac4 7dbd 52b1 6a3d
00000190: 1838 df3d d71c 733e 4edd 883d 4849 edbc
000001a0: 23f7 d0bc 081e e93d d89c a33d 4b39 2a3d
000001b0: deda d23d 2f6d 863c 2094 bd3d 64e7 b7bb
000001c0: 6399 813d e033 043e 63ab d83c c0fa 2ebc
000001d0: 16e4 79bd c8ad a33d a0ec b23d 17b4 923d

fc2.weight f4 [84, 120]
-0.049433965 0.091426186 -0.04390197 -0.08560492 -0.025703212 -0.04258618 0.009689342 0.013663675
-0.07181161 0.21153153 -0.06312678 -0.034796715 0.026843973 0.054723103 -0.051055662 -0.030149171
0.037789103 -0.013546905 0.07985906 -0.037665196 -0.009137085 -0.058839057 0.05070665 -0.11511557
0.06347629 -0.029528879 0.06476429 -0.11275578 0.15476604 -0.016379755 -0.066626154 -0.011224082
0.0425176 -0.083672404 -0.018502861 -0.02070017 0.046158016 0.023580713 0.03315312 0.06573966
-0.08206374 -0.12825777 0.055589583 -0.07780627 -0.057685833 0.0702367 0.01906708 0.014885789
0.012248577 0.07132533 -0.018042734 0.098403 0.040982105 -0.0771712 0.05687137 -0.030540023
-0.03408897 0.023745863 -0.08217566 0.004399844 -0.04271459 -0.020703595 -0.059521943 0.046937145
-0.10622089 -0.07427997 0.005975919 -0.04561619 0.0049708467 0.06382409 -0.011088527 -0.07644726
-0.07864717 0.17666142 -0.011256835 -0.047382284 0.02465754 -0.0138949305 -0.045958903 -0.107955925
-0.04568061 -0.1415146 -0.05595991 -0.072744675 0.07039966 -0.11557588 -0.062223308 -0.0017337329
0.06781733 0.078001425 -0.011415453 -0.15455827 -0.0018490951 0.031124951 0.0017358931 -0.042445503
0.04095638 -0.06540561 0.0108288545 0.06730175 0.08962153 -0.08479364 0.09421723 -0.01770284
0.08215008 0.035356857 -0.019020846 0.049230736 -0.039649997 0.05107803 -0.075419575 0.07339934
0.019495867 0.028561277 0.016075445 -0.104729265 0.094024874 -0.009040184 -0.005031965 -0.03407928
-0.00035624232 0.009197425 0.07699415 0.028261421 -0.0065202164 0.05167738 0.03028273 0.03719664
-0.06620206 -0.07778006 0.055830713 0.115696765 -0.045998413 -0.02416298 -0.04901436 0.055218276
0.072833106 0.088809654 0.032615017 0.014196155 0.08607914 -0.015723586 -0.050706368 -0.04119782
-0.051010583 -0.008037264 0.11851403 0.013049334 0.029704908 0.0034792484 -0.13083267 0.01543144
-0.07628663 0.13885747 0.03806412 -0.014492954 -0.020903459 -0.05911953 0.012071788 0.1204282
-0.020305011 -0.06705239 -0.055197686 0.022765134 0.036938574 -0.037607875 -0.02593123 0.0038231288
0.06540893 0.03142007 -0.06327366 0.08580851 0.03159032 0.03975461 -0.07237348 0.07166345
0.08681166 -0.08598552 -0.018204914 0.039879676 -0.01803982 0.07795701 0.06344905 -0.07077981
-0.003404017 -0.034846272 -0.052443445 -0.097609505 -0.02856871 -0.004478443 0.056465324 0.059640795
-0.03579304 0.12555146 0.043339603 -0.023019316 -0.026500238 -0.09856222 -0.024655772 -0.031777762
-0.10605644 0.05531446 0.04344647 0.04623061 -0.042028185 0.053264577 0.13355942 -0.11039293
0.06351695 0.005696623 -0.00375076 -0.08113847 -0.0666173 0.07496661 0.16190517 0.087466545
0.07342398 -0.016342025 -0.022251917 0.038253315 -0.0769483 0.101608574 0.08500488 -0.00071940525
-0.009253071 -0.025518728 0.10530777 -0.048325747 0.078544214 0.059495147 0.022341376 -0.09322647
-0.086807534 -0.04221795 0.014789991 -0.061652005 -0.027751278 0.010853542 -0.02384474 0.0057032015
-0.08897185 -0.07852565 -0.09023705 -0.08477833 0.08557814 -0.039216958 0.0036832695 0.014237331
0.0081941215 -0.08743462 0.07940314 -0.047507234 0.10353874 -0.018773988 0.0024297482 0.025903944
00000000: 457b 4abd a73d bb3d 8dd2 33bd a251 afbd
00000010: 8b8f d2bc d96e 2ebd 0cc0 1e3c 9bdd 5f3c
00000020: f711 93bd b99b 583e 9d48 81bd 0087 0ebd
00000030: e4e7 db3c 5525 603d be1f 51bd 65fb f6bc
00000040: bfc8 1a3d d6f3 5dbc 268d a33d d246 1abd
00000050: b6b3 15bc 3901 71bd c7b1 4f3d b6c1 ebbd
00000060: dbff 813d 8ce6 f1bc 24a3 843d 81ec e6bd
00000070: fd7a 1e3e d62e 86bc 4b73 88bd 36e5 37bc
00000080: ef26 2e3d 705c abbd 5093 97bc 6793 a9bc
00000090: 3010 3d3d 572c c13c 91cb 073d 84a2 863d
000000a0: 0911 a8bd 0156 03be e7b1 633d e558 9fbd
000000b0: fb47 6cbd 42d8 8f3d 9132 9c3c 86e3 733c
000000c0: 41ae 483c 0413 923d 5bce 93bc 8387 c93d
000000d0: dadc 273d ef0b 9ebd f4f1 683d 122f fabc
000000e0: e0a0 0bbd af86 c23c b64b a8bd 912c 903b
000000f0: 7ef5 2ebd 969a a9bc 48cd 73bd 2a41 403d
00000100: 578a d9bd 1920 98bd a4d1 c33b 0bd8 3abd
00000110: 7ce2 a23b 34b6 823d a7ac 35bc 6290 9cbd
00000120: c411 a1bd bbe6 343e 976e 38bc ed13 42bd
00000130: 9cfe c93c 90a7 63bc 673f 3cbd ff17 ddbd
00000140: 971b 3bbd 34e9 10be 3836 65bd 29fb 94bd
00000150: b22d 903d 0cb3 ecbd dedd 7ebd 6c3e e3ba
00000160: d0e3 8a3d 36bf 9f3d e107 3bbc 8644 1ebe
00000170: 565d f2ba c1f9 fe3c e886 e33a 56db 2dbd
00000180: e1c1 273d 60f3 85bd 826b 313c 80d5 893d
00000190: 7e8b b73d 4aa8 adbd f7f4 c03d 8c05 91bc
000001a0: 4d3e a83d 5ad2 103d 9bd1 9bbc 2ba6 493d
000001b0: 0968 22bd 3237 513d 9475 9abd 6552 963d
000001c0: ccb5 9f3c 57f9 e93c a7b0 833c 4c7c d6bd
000001d0: 1d90 c03d 481d 14bc 2fe3 a4bb b796 0bbd
000001e0: 09c6 bab9 ccb0 163c 1caf 9d3d 7f84 e73c
000001f0: 8aa7 d5bb a9ab 533d 7d13 f83c 815b 183d
00000200: f294 87bd 274b 9fbd bfae 643d 6df2 ec3d
00000210: d568 3cbd 71f1 c5bc 48c3 48bd 8f2c 623d
00000220: 8629 953d d6e1 b53d 5397 053d fd96 683c
00000230: 434a b03d c0ce 80bc 7bb1 4fbd 0cbf 28bd
00000240: 79f0 50bd bbae 03bc 7cb7 f23d e0cc 553c
00000250: b557 f33c 1a04 643b 00f9 05be 27d4 7c3c
00000260: 2a3c 9cbd a730 0e3e 1fe9 1b3d db73 6dbc
00000270: bb3d abbc 5227 72bd c0c8 453c 0fa3 f63d
00000280: b256 a6bc c352 89bd f816 62bd f27d ba3c
00000290: e74c 173d b70a 1abd bb6d d4bc 758d 7a3b
000002a0: 1ef5 853d 55b2 003d 9f95 81bd 5fbc af3d
000002b0: da64 013d bbd5 223d 8c38 94bd 49c4 923d
000002c0: 50ca b13d 2d19 b0bd 7922 95bc df58 233d
000002d0: 3fc8 93bc eda7 9f3d 93f1 813d 01f5 90bd
000002e0: ee15 5fbb f7ba 0ebd f0ce 56bd 7ee7 c7bd
000002f0: ed08 eabc e7bf 92bb 2f48 673d e849 743d
00000300: b99b 12bd 9090 003e de84 313d 0193 bcbc
00000310: 0717 d9bc fdda c9bd e7fa c9bc 6629 02bd
00000320: 1e34 d9bd 6a91 623d edf4 313d 4f5c 3d3d
00000330: bf25 2cbd f52b 5a3d cdc3 083e b015 e2bd
00000340: 2d15 823d bdaa ba3b 50cf 75bb ed2b a6bd
00000350: a76e 88bd 1888 993d 78ca 253e a921 b33d
00000360: 505f 963d b6df 85bc a749 b6bc 82af 1c3d
00000370: 1297 9dbd 2818 d03d 0a17 ae3d 7896 3cba
00000380: 319a 17bc a70c d1bc 9aab d73d 38f1 45bd
00000390: cadb a03d 2fb1 733d 4305 b73c 85ed bebd
000003a0: 26c8 b1bd bbec 2cbd b851 723c d086 7cbd
000003b0: a656 e3bc 0ed3 313c 0b56 c3bc ece1 ba3b
000003c0: e036 b6bd 0ed2 a0bd 34ce b8bd 43a0 adbd
000003d0: 9843 af3d f6a1 20bd 0263 713b b243 693c
000003e0: a340 063c ec10 b3bd 1d9e a23d f296 42bd
000003f0: 1e0c d43d e8cb 99bc 693c 1f3b 8234 d43c

fc2.bias f4 [84]
-0.0809231 0.018783191 0.002565255 0.0027853958 -0.0028531656 -0.1269055 0.34671554 0.33004177
0.02571123 -0.041930243 -0.013870429 0.02878227 0.14484893 -0.09267191 0.18904355 -0.032773137
0.06563475 -0.0105764 0.114699826 -0.09100285 0.059067246 0.05262022 -0.06441292 -0.0821748
-0.088408746 -0.046765253 -0.05942221 0.03655894 -0.021570794 -0.0824104 -0.041090533 0.21819443
-0.06418409 0.115211084 0.029590903 0.31790712 -0.003427395 0.32170653 0.34906656 0.05449527
0.016896475 0.052746087 0.07919975 0.17323266 0.28379774 -0.006773519 0.18713334 -0.09474005
0.039057985 0.24565668 0.018389527 0.05177295 -0.028823258 -0.08064859 -0.21058583 0.38198176
-0.043629553 0.14551832 0.05961663 -0.050009567 0.18462096 6.272564e-05 0.0966175 0.003779682
0.17135875 0.2567283 -0.05088279 0.33883116 -0.091533184 0.115949 0.1277217 -0.032940052
0.16176347 0.056400005 0.058395773 -0.050766747 -0.078158416 -0.062176898 -0.00297629 0.21888378
0.118296325 0.31396767 -0.059743565 0.024948843
00000000: 03bb a5bd 35df 993c d61d 283b 308b 363b
00000010: 2dfc 3abb 84f3 01be b384 b13e 3cfb a83e
00000020: 5ba0 d23c 0cbf 2bbd cc40 63bc ccc8 eb3c
00000030: 4753 143e c5ca bdbd a294 413e 203d 06bd
00000040: 836b 863d a348 2dbc bee7 ea3d b45f babd
00000050: 7ff0 713d 4d88 573d ecea 83bd 434b a8bd
00000060: a50f b5bd ec8c 3fbd b464 73bd d4be 153d
00000070: 3cb5 b0bc c9c6 a8bd 8c4e 28bd 5c6e 5f3e
00000080: f372 83bd caf3 eb3d 9f68 f23c b9c4 a23e
00000090: 259e 60bb b8b6 a43e dab8 b23e 6f36 5f3d
000000a0: 7a6a 8a3c 480c 583d 7b33 a23d e763 313e
000000b0: f04d 913e 65f4 ddbb e29f 3f3e 1207 c2bd
000000c0: 44fb 1f3d 6d8d 7b3e a2a5 963c df0f 543d
000000d0: c11e ecbc 172b a5bd d0a3 57be 1d93 c33e
000000e0: e7b4 32bd c102 153e 9130 743d d5d6 4cbd
000000f0: 470d 3d3e 928b 8338 65df c53d 8bb4 773b
00000100: ab78 2f3e e471 833e 796a 50bd 477b ad3e
00000110: c075 bbbd ab76 ed3d 7ac9 023e 26ec 06bd
00000120: 53a5 253e b103 673d 6830 6f3d cbf0 4fbd
00000130: 8511 a0bd 34ad 7ebd dc0d 43bb 1223 603e
00000140: 5845 f23d 5fc0 a03e abb5 74bd 8461 cc3c

fc3.weight f4 [10, 84]
0.20771559 0.048538864 -0.115871646 -0.0029427873 -0.059169766 0.15870671 0.038424168 -0.12259338
-0.07555778 0.019550793 0.015557836 0.048187602 -0.13565399 0.033027343 0.11253483 0.3523224
-0.007802141 0.12435369 -0.17702298 0.014445791 -0.07744378 0.009927372 -0.015692316 -0.12092977
-0.06803967 -0.019761663 -0.007450119 -0.07524535 0.08603011 -0.059189018 0.11483867 0.013260562
0.008976857 -0.16185303 -0.005765181 -0.31967023 0.032767303 0.38809064 -0.3123645 0.13753457
0.19604331 0.010472857 0.11317034 0.17682943 0.26294068 0.048158426 -0.1935131 -0.047650862
0.083693355 0.16584931 0.20273185 0.013110443 0.14634192 0.07615863 0.11758607 0.026480945
0.18053728 0.20891584 -0.12027856 -0.24195282 -0.07434956 -0.0982037 -0.0568307 0.13133664
-0.2556148 0.042803947 -0.03013105 -0.16530737 0.32760766 0.16440386 0.27614838 0.059336476
0.017601574 0.055659562 -0.0613378 -0.058663025 -0.032137733 -0.10042349 -0.05734856 0.16058356
0.085059814 -0.0740143 -0.009686861 -0.08368894 -0.13516515 0.0767691 0.022503631 0.1518649
0.024233604 0.180326 0.007285167 -0.15741809 0.05073403 -0.06920265 0.0870117 0.14096643
0.13251038 -0.04722391 -0.055603925 -0.043272775 -0.04453234 -0.07382219 -0.20830868 0.08921098
0.06132287 -0.106833294 -0.00602336 0.4055592 -0.08287438 0.027439814 0.27958035 -0.06133919
0.029739054 0.056715455 -0.06543904 0.06864109 0.012946995 -0.16766028 0.00042682557 -0.025235493
0.11616607 -0.005819951 0.009992575 0.044927623 0.023830136 -0.013027914 -0.19304752 -0.24936531
-0.19970527 0.014588711 -0.16712117 0.06079148 0.058571655 0.19129701 0.032758716 0.11878045
0.1378321 -0.10280391 0.26202747 -0.10938757 0.34653386 -0.09684244 0.28163022 -0.10023067
-0.35322294 0.0072029172 -0.08105158 -0.08135242 -0.042531423 -0.04644786 0.003519167 -0.21740858
0.0053860657 0.0988718 0.20543918 -0.17091762 -0.10952636 -0.05499151 -0.022201216 0.06435446
-0.020628266 -0.21279567 -0.13833383 -0.1770485 0.20205042 -0.47073075 0.0975461 -0.05342152
0.06414907 0.2152618 0.06237705 -0.1984554 0.1434134 0.19919431 0.16833043 0.14258689
0.20236364 -0.06848062 -0.06741234 -0.20435752 0.06731791 -0.0026937926 -0.16729438 0.26255152
-0.15790358 -0.114425756 0.17726156 0.030846642 0.034106247 0.04626496 0.023583049 -0.08775651
-0.02280834 0.055681966 -0.115371495 -0.059337433 -0.11068028 0.0774393 -0.049335323 -0.09301968
-0.059195634 0.042114433 -0.018469347 0.34680977 -0.14537825 0.05679059 0.096643485 0.1313725
0.06299775 -0.121531956 0.1750635 0.1731087 0.1726265 0.049398195 -0.104987614 0.10885304
-0.08475404 -0.03835027 -0.019211717 -0.03530275 -0.11954583 0.03513233 -0.013719125 -0.21030623
-0.05086035 0.23479351 -0.151864 0.023823712 -0.019749766 0.050245956 0.14090003 0.21975657
-0.10238841 -0.17598328 -0.06828429 0.18049109 0.024120282 -0.10941936 -0.054260798 0.22112189
-0.07505196 -0.085039325 -0.05726365 -0.022687929 -0.049486596 0.056776237 -0.09467282 0.11526259
-0.15358023 0.24402566 0.09469646 -0.017456798 -0.06432642 -0.034081716 -0.005607555 0.034365986
00000000: 65b3 543e b0d0 463d 1d4e edbd c7db 40bb
00000010: ff5b 72bd 0384 223e a962 1d3d 3d12 fbbd
00000020: 0abe 9abd fc28 a03c 4be6 7e3c 5d60 453d
00000030: e1e8 0abe ae47 073d a978 e63d 9a63 b43e
00000040: 1aa9 ffbb 26ad fe3d 8345 35be 0aae 6c3c
00000050: d89a 9ebd 6ba6 223c 2c8d 80bc 07aa f7bd
00000060: 6258 8bbd 36e3 a1bc 2120 f4bb 3c1a 9abd
00000070: 8e30 b03d 2f70 72bd 8930 eb3d d442 593c
00000080: ab13 133c cdbc 25be d8e9 bcbb d1ab a3be
00000090: 0237 063d d1b3 c63e 3dee 9fbe ddd5 0c3e
000000a0: 94bf 483e 5996 2b3c dac5 e73d c612 353e
000000b0: 29a0 863e c541 453d 4c28 46be 8d2d 43bd
000000c0: 6c67 ab3d 67d4 293e f098 4f3e 2fcd 563c
000000d0: a8da 153e 0ef9 9b3d f7d0 f03d 91ee d83c
000000e0: c4de 383e 09ee 553e 9b54 f6bd 7bc2 77be
000000f0: 9544 98bd 051f c9bd 4fc7 68bd 1d7d 063e
00000100: f1df 82be 3153 2f3d 64d5 f6bc 5646 29be
00000110: 31bc a73e 7c59 283e 5263 8d3e ce0a 733d
00000120: 2d31 903c 48fb 633d 583d 7bbd a448 70bd
00000130: dba2 03bd d5aa cdbd 53e6 6abd 0470 243e
00000140: d733 ae3d cf94 97bd a4b5 1ebc 1b65 abbd
00000150: bc68 0abe 1e39 9d3d 8959 b83c 7982 1b3e
00000160: 8d85 c63c 61a7 383e 69b8 ee3b 3532 21be
00000170: 7cce 4f3d 1eba 8dbd 3133 b23d 8159 103e
00000180: cdb0 073e dc6d 41bd f1c0 63bd cb3e 31bd
00000190: 8b67 36bd 1730 97bd df4e 55be 3fb4 b63d
000001a0: b12d 7b3d 6acb dabd 9b5f c5bb 75a5 cf3e
000001b0: 0bba a9bd 76c9 e03c 2825 8f3e cd3e 7bbd
000001c0: 519f f33c 774e 683d e704 86bd b393 8c3d
000001d0: a21f 543c 23af 2bbe 8fc7 df39 aaba cebc
000001e0: 7ae8 ed3d 4ab5 bebb e6b7 233c 0706 383d
000001f0: 6b37 c33c 0873 55bc 40ae 45be 9f59 7fbe
00000200: 8a7f 4cbe 7d05 6f3c d021 2bbe 7d00 793d
00000210: d5e8 6f3d 5de3 433e 012e 063d 2a43 f33d
00000220: dc23 0d3e db8a d2bd 7728 863e 9706 e0bd
00000230: e36c b13e 5455 c6bd d631 903e bd45 cdbd
00000240: a3d9 b4be 7306 ec3b 5ffe a5bd 199c a6bd
00000250: 6e35 2ebd 1c40 3ebd d3a1 663b 5ba0 5ebe
00000260: 987d b03b 4c7d ca3d a65e 523e 0705 2fbe
00000270: 5b4f e0bd c73e 61bd 53df b5bc 45cc 833d
00000280: 9cfc a8bc 1ce7 59be 62a7 0dbe 344c 35be
00000290: 4ee6 4e3e 9f03 f1be 40c6 c73d 86d0 5abd
000002a0: 9660 833d 976d 5c3e 147f 7f3d e437 4bbe
000002b0: f6da 123e 98f9 4b3e d05e 2c3e 4c02 123e
000002c0: 6a38 4f3e 913f 8cbd 7b0f 8abd 1943 51be
000002d0: f9dd 893d 578a 30bb 384f 2bbe 276d 863e
000002e0: 7ab1 21be 0d58 eabd 0e84 353e 19b2 fc3c
000002f0: feb2 0b3d 5480 3d3d 3d31 c13c afb9 b3bd
00000300: 8ed8 babc c612 643d e447 ecbd cf0b 73bd
00000310: 58ac e2bd 7f98 9e3d d613 4abd 1a81 bebd
00000320: 1f77 72bd 2f80 2c3d 074d 97bc 0d91 b13e
00000330: 09de 14be 409d 683d 05ed c53d 8386 063e
00000340: f704 813d bfe5 f8bd d943 333e 6843 313e
00000350: 00c5 303e c355 4a3d bf03 d7bd 58ee de3d
00000360: 8793 adbd 2c15 1dbd e461 9dbc 9e99 10bd
00000370: 72d4 f4bd ebe6 0f3d 2ec6 60bc 845a 57be
00000380: f152 50bd b66d 703e 3d82 1bbe f229 c33c
00000390: 43ca a1bc b4ce 4d3d 1948 103e de07 613e
000003a0: 04b1 d1bd f634 34be a2d8 8bbd a8d2 383e
000003b0: e697 c53c 4217 e0bd 9240 5ebd c76d 623e
000003c0: d8b4 99bd 1929 aebd 4a8d 6abd 09dc b9bc
000003d0: 75b2 4abd 338e 683d d3e3 c1bd cb0e ec3d
000003e0: 2344 1dbe dde1 793e 38f0 c13d 8f01 8fbc
000003f0: 92bd 83bd 4599 0bbd 95bf b7bb 59c3 0c3d

fc3.bias f4 [10]
-0.115743585 -0.4393293 -0.09165948 0.32075417 0.45532858 -0.06243327 0.16082728 -0.27562296
0.3826488 -0.2534317
00000000: f90a edbd c5ef e0be f7b7 bbbd e439 a43e
00000010: d420 e93e 07ba 7fbd e8af 243e 741e 8dbe
00000020: 8bea c33e cdc1 81be
