Intro PyTorch/cifar_net.pth (torch_old, 249562 bytes, 10 tensors)

conv1.weight f4 [6, 3, 5, 5]
0.021378443 -0.040880956 -0.09682413 0.14905727 0.20865415 -0.16649543 -0.1287649 0.16462593
0.2573942 0.20695844 -0.25395924 -0.03076444 0.2659267 0.18423185 0.12437517 -0.19432904
0.112633 0.12484825 -0.01922436 0.06309777 0.20411657 0.13877115 0.15226065 0.0027629347
0.37107414 -0.0595743 -0.17330724 -0.30186182 0.09748466 0.24395898 -0.52666104 -0.40494123
0.098918386 0.27349052 0.3307317 -0.50454164 -0.09400507 0.13901284 0.17667682 0.06383311
-0.20430665 -0.04146816 0.14919165 -0.07621291 -0.057959702 0.0516176 0.059002083 -0.08274114
-0.17889686 -0.2332721 -0.16618837 -0.15779682 -0.023338307 0.39284435 0.38753694 -0.36246973
-0.29885012 0.2177761 0.45893446 0.1704649 -0.47827226 -0.061437633 0.34431675 0.38725284
0.14154379 -0.013465792 0.25577524 0.07188466 0.010453398 -0.14221781 0.23330055 0.28082216
0.009925028 -0.097677596 -0.14731051 0.33373368 0.04029259 0.031300902 0.032328736 0.2939775
0.03741262 -0.26576528 -0.25118902 -0.20346448 -0.026095089 -0.18551137 -0.40259963 -0.44583008
-0.45732468 -0.22328928 -0.23029234 -0.38448486 -0.34219274 -0.33027735 -0.14057599 -0.013924547
-0.1048589 -0.1653626 -0.22582379 0.050043862 -0.14860584 -0.2489236 -0.14637007 -0.17122611
-0.12823458 -0.06583042 0.0106765125 0.20710717 -0.03662359 -0.023451107 -0.06777815 0.105662204
0.13988131 0.017483696 -0.03870662 -0.18675074 0.106876366 0.290068 0.18830562 0.02347703
-0.39834914 -0.07447437 0.0022481382 -0.1514855 -0.49242043 0.26079783 0.29411528 0.039945275
-0.2036571 -0.28189293 0.23465987 0.5476574 0.5291765 0.28013197 -0.061894357 0.16869259
0.42332935 0.4727793 0.378105 -0.026856208 0.22890447 0.47607133 0.547961 0.4632416
0.11704702 0.022696074 0.22141919 0.3371224 0.27975398 -0.2674321 -0.25798115 0.39844054
0.28504348 0.33997744 -0.07220168 -0.24890512 -0.21005 0.38353 0.75053155 0.41864133
0.027185395 -0.5551405 -0.43771017 0.32228637 0.46942875 -0.05274307 -0.25395176 -0.22994187
-0.3465125 0.0036223794 -0.1686029 -0.23927742 -0.13169453 0.020448694 -0.019027622 -0.25724977
0.17954773 0.23374942 0.085790016 -0.10512611 -0.406379 -0.50284207 0.12778386 0.24010988
0.23934194 -0.033756994 -0.6164901 -0.75230414 -0.11888873 0.2883338 -0.027651265 -0.14450064
-0.39279783 -0.5893722 -0.3492583 0.031804353 -0.06750271 -0.032557763 -0.13406204 -0.28842083
0.035254687 0.14090443 -0.032049626 -0.0893752 -0.3376271 -0.10645403 -0.39478776 0.10460691
0.34667212 0.2532688 0.24836418 -0.23236528 -0.36961094 -0.045880783 0.28379422 0.47329536
0.26106966 -0.26036507 -0.5449055 -0.1844923 0.56869286 0.3960353 0.3403971 0.09705501
-0.32920015 0.25867105 0.7003261 0.62946016 0.4434647 0.1681603 0.8846097 0.74547577
0.3818439 -0.01774311 -0.15506981 0.7207024 0.21510266 0.017619064 -0.12316345 -0.05058649
0.3925676 -0.33529907 -0.19772404 -0.21538621 -0.20154606 -0.4611137 -0.7261906 -0.41875723
-0.45147875 -0.60200953 0.11547114 0.36208284 0.17406176 -0.03691006 -0.07667561 0.087569565
00000000: d821 af3c ca72 27bd bb4b c6bd 78a2 183e
00000010: 6fa9 553e c77d 2abe f2da 03be b393 283e
00000020: 2cc9 833e eaec 533e f206 82be b505 fcbc
00000030: 8b27 883e 46a7 3c3e 69b8 fe3d 31fe 46be
00000040: 21ac e63d 70b0 ff3d 687c 9dbc 6739 813d
00000050: ef03 513e 061a 0e3e 37ea 1b3e 5a12 353b
00000060: 6efd bd3e 2e04 74bd 7477 31be a28d 9abe
00000070: 0aa6 c73d 62d0 793e 42d3 06bf 7554 cfbe
00000080: b995 ca3d f306 8c3e aa55 a93e a429 01bf
00000090: bb85 c0bd 6259 0e3e c5ea 343e efba 823d
000000a0: c335 51be 84da 29bd b2c5 183e 8415 9cbd
000000b0: 2767 6dbd fa6c 533d 2bac 713d 3074 a9bd
000000c0: bd30 37be e2de 6ebe 492d 2abe 7d95 21be
000000d0: fa2f bfbc e522 c93e 3e6b c63e a295 b9be
000000e0: e202 99be b300 5f3e 75f9 ea3e 5a8e 2e3e
000000f0: 1ae0 f4be 07a6 7bbd 494a b03e 0146 c63e
00000100: dbf0 103e a09f 5cbc f9f4 823e 4438 933d
00000110: bb44 2b3c 8ca1 11be 57e6 6e3e ecc7 8f3e
00000120: 969c 223c 310b c8bd 91d8 16be 24df aa3e
00000130: d809 253d 6035 003d 236b 043d 3884 963e
00000140: fa3d 193d 6312 88be d99b 80be fe58 50be
00000150: 5ec5 d5bc b1f6 3dbe 8a21 cebe d743 e4be
00000160: 7626 eabe f2a5 64be c1d1 6bbe 33db c4be
00000170: e333 afbe 1d1a a9be 27f3 0fbe c823 64bc
00000180: 43c0 d6bd d054 29be 5a3e 67be cbfa 4c3d
00000190: 212c 18be d4e5 7ebe 09e2 15be e655 2fbe
000001a0: ed4f 03be 19d2 86bd 8aec 2e3c e713 543e
000001b0: 9e02 16bd 891c c0bc 45cf 8abd 6d65 d83d
000001c0: 0c3d 0f3e f839 8f3c d58a 1ebd 963b 3fbe
000001d0: ffe1 da3d cb83 943e 30d3 403e e752 c03c
000001e0: 6bf4 cbbe 0586 98bd 8055 133b 041f 1bbe
000001f0: 881e fcbe 4b87 853e 4796 963e a89d 233d
00000200: 7d8b 50be 4554 90be ad4a 703e 4633 0c3f
00000210: 1c78 073f 756d 8f3e f084 7dbd c0bd 2c3e
00000220: a0be d83e 2110 f23e fb96 c13e 8d01 dcbc
00000230: ef65 6a3e 9fbf f33e 2c47 0c3f 012e ed3e
00000240: 59b6 ef3d 1eed b93c b6bb 623e 4f9b ac3e
00000250: ea3b 8f3e dcec 88be 1b16 84be 6600 cc3e
00000260: 38f1 913e 8611 ae3e 79de 93bd fce0 7ebe
00000270: 5917 57be 0b5e c43e d622 403f 2858 d63e
00000280: e8b3 de3c b01d 0ebf 8c1b e0be b802 a53e
00000290: f758 f03e 1e09 58bd f705 82be e275 6bbe
000002a0: 166a b1be 7165 6d3b 3da6 2cbe 2405 75be
000002b0: eeda 06be 0584 a73c d1df 9bbc 3eb6 83be
000002c0: 5cdb 373e 025c 6f3e adb2 af3d 5c4c d7bd
000002d0: e910 d0be 42ba 00bf c6d9 023e 5ddf 753e
000002e0: 0e16 753e c644 0abd 4cd2 1dbf 0197 40bf
000002f0: ef7b f3bd 7da0 933e e884 e2bc faf7 13be
00000300: cc1c c9be 19e1 16bf fcd1 b2be 4845 023d
00000310: dc3e 8abd 4a5b 05bd 8f47 09be e5ab 93be
00000320: 3867 103d 4049 103e 7846 03bd 580a b7bd
00000330: 76dd acbe 9204 dabd 9f21 cabe 263c d63d
00000340: 027f b13e 73ac 813e 2e53 7e3e 2af1 6dbe
00000350: a53d bdbe 7ded 3bbd 7a4d 913e c553 f23e
00000360: ecaa 853e 924e 85be ed7e 0bbf 8deb 3cbe
00000370: db95 113f 24c5 ca3e 8748 ae3e c7c4 c63d
00000380: ec8c a8be 8870 843e 9248 333f 4d24 213f
00000390: ce0d e33e 3732 2c3e c875 623f 80d7 3e3f
000003a0: 0b81 c33e 005a 91bc 9fca 1ebe f47f 383f
000003b0: df43 5c3e db55 903c 1e3d fcbd c833 4fbd
000003c0: 9ffe c83e 52ac abbe 2c78 4abe 348e 5cbe
000003d0: 1762 4ebe 1817 ecbe a1e7 39bf 5967 d6be
000003e0: 3928 e7be 4c1d 1abf 227c ec3d ec62 b93e
000003f0: 3f3d 323e 012f 17bd 1a08 9dbd ac57 b33d

conv1.bias f4 [6]
0.11602292 0.3631739 -0.9460167 -0.6593843 -0.43598557 -0.32973132
00000000: 6d9d ed3d eef1 b93e 272e 72bf 69cd 28bf
00000010: 8039 dfbe 8bd2 a8be

conv2.weight f4 [16, 6, 5, 5]
0.42721838 0.48112833 0.32574522 0.17135929 0.5529997 -0.10718701 0.18309712 0.21642439
-0.08736394 0.10529343 -0.1944955 0.10282337 0.14163685 0.11604871 0.25652945 -0.14802568
-0.22361076 -1.1712396e-05 -0.0060744197 0.15200292 -0.14016064 0.03612593 -0.17294927 -0.15615803
0.009352387 0.29828537 0.17118835 0.09784161 0.22453302 0.21509811 -0.017879046 -0.09982319
0.011424999 -0.026614184 -0.016591066 -0.051914506 -0.17608778 -0.094145805 -0.11725953 -0.028016262
0.034279022 -0.11868314 -0.097268924 -0.21707894 -0.09868362 0.27065617 0.04177028 0.07738474
0.04047988 0.13101265 0.03830085 -0.003054444 -0.17093746 -0.2864245 -0.2374964 0.049819384
0.3278758 0.20488827 0.1464093 -0.032266762 -0.11744809 0.058817364 0.07424116 0.023943111
0.22254992 0.14763227 -0.051851124 -0.040827777 -0.11075251 0.008380476 0.3324048 0.23165762
-0.115547545 -0.15821634 -0.08377353 -0.034813717 0.080560096 0.0064787753 0.21805531 0.05127276
0.1697066 0.1986156 0.27503917 0.17283188 0.3766105 -0.15749738 -0.14564306 0.026814103
0.0103807775 0.18545751 0.041680038 -0.030740306 -0.110748105 -0.11127598 -0.04661862 -0.15936942
-0.018425824 -0.22049777 -0.14859721 -0.17286383 -0.43929815 -0.056710225 0.16164306 0.026738156
0.09966921 -0.5035246 -0.612364 -0.34000427 -0.3522557 -0.17544529 -0.60099894 -0.7250115
-0.696295 -0.60377383 -0.51362616 -0.2982785 -0.50600106 -0.5661115 -0.4369157 -0.28092283
-0.18395662 -0.2574637 -0.24942371 -0.23751177 -0.2508808 0.27675444 -0.05443049 -0.17580909
-0.11958433 -0.027923318 0.24895637 0.010956415 0.00055792346 -0.028847514 -0.15232551 0.27432248
-0.06788915 0.017219478 0.06311492 0.060590297 0.004312671 -0.08974574 -0.062347457 0.088338226
-0.14899705 0.10046258 0.105518386 -0.17272796 -0.15400016 -0.16658089 0.15193866 0.16032726
-0.061774332 0.19598131 -0.11766861 -0.084941946 -0.088217735 -0.031776793 -0.010531552 0.011761984
-0.08750451 -0.1531224 -0.07497701 -0.23080562 0.17438276 -0.08185851 0.008248145 -0.13403517
0.094769746 0.31015843 0.045937095 -0.11612877 0.0633988 0.08251316 0.030707734 0.22257635
0.15001753 -0.02286778 0.017384896 -0.1534224 -0.066472024 0.008204109 -0.11012348 0.10936833
-0.17384987 -0.053849686 -0.014303188 0.09048987 -0.04374136 -0.07551662 0.07169949 0.041860607
-0.034532532 -0.008528041 0.025947783 0.1645722 0.19393982 0.02796768 0.11066662 -0.0216711
-0.1943004 0.05176779 0.0030395046 -0.14485869 -0.23338346 -0.20243005 -0.31285453 -0.2845944
-0.044102944 -0.18279532 0.03842694 -0.08850477 0.10259812 -0.021285204 -0.10017755 0.083073035
-0.1032234 -0.04027578 -0.049912483 -0.19158702 0.13503896 0.12286675 -0.25624368 -0.23711261
-0.18665867 0.21354815 0.15158394 0.21750821 0.037833635 0.23681402 0.20797415 0.18601787
-0.04458356 0.07431579 0.008003042 -0.15718538 0.10448292 0.34009066 0.55247575 0.21388412
-0.006243569 0.15640165 0.05831888 0.041417833 -0.13993938 0.09810768 0.014155801 0.033229925
-0.034095433 0.062471546 0.15126914 0.04875634 0.19643064 -0.10495268 0.089279935 0.16344702
00000000: 5ebc da3e 7456 f63e 14c8 a63e cf78 2f3e
00000010: 6391 0d3f dd84 dbbd d07d 3b3e 5b9e 5d3e
00000020: deeb b2bd 15a4 d73d d429 47be 0f95 d23d
00000030: 4009 113e f2aa ed3d d457 833e 0b94 17be
00000040: 38fa 64be 5c80 44b7 ed0b c7bb a7a6 1b3e
00000050: 4586 0fbe c8f8 133d 9d19 31be e4e7 1fbe
00000060: c13a 193c dcb8 983e 004c 2f3e 2f61 c83d
00000070: fceb 653e ae42 5c3e 1477 92bc 1a70 ccbd
00000080: eb2f 3b3c fd05 dabc fde9 87bc 4ea4 54bd
00000090: 5b50 34be 84cf c0bd c425 f0bd 5c82 e5bc
000000a0: 2968 0c3d 2510 f3bd ee34 c7bd f149 5ebe
000000b0: a31a cabd 7293 8a3e 5017 2b3d e47b 9e3d
000000c0: 3bce 253d 2e28 063e 5ae1 1c3d 112d 48bb
000000d0: 3b0a 2fbe 3ba6 92be 4232 73be 690f 4c3d
000000e0: 56df a73e 3bce 513e 52ec 153e 272a 04bd
000000f0: a088 f0bd 7aea 703d c00b 983d 5824 c43c
00000100: 20e4 633e ea2c 173e d861 54bd 073b 27bd
00000110: 36d2 e2bd 444e 093c f630 aa3e a837 6d3e
00000120: 31a4 ecbd 7703 22be 7591 abbd d498 0ebd
00000130: b1fc a43d e84b d43b e449 5f3e 6303 523d
00000140: 91c7 2d3e e361 4b3e efd1 8c3e d7fa 303e
00000150: 17d3 c03e fe46 21be 7423 15be 40a9 db3c
00000160: 2314 2a3c 93e8 3d3e b0b8 2a3d 18d3 fbbc
00000170: e7cf e2bd a9e4 e3bd 2bf3 3ebd bd31 23be
00000180: c1f1 96bc 2bca 61be de29 18be 3703 31be
00000190: b0eb e0be fb48 68bd c285 253e fa09 db3c
000001a0: 5f1f cc3d fde6 00bf e3c3 1cbf 0a15 aebe
000001b0: dc5a b4be eea7 33be 11db 19bf 5b9a 39bf
000001c0: 6440 32bf ec90 1abf 017d 03bf f6b7 98be
000001d0: 4989 01bf afec 10bf 6ab3 dfbe 1ed5 8fbe
000001e0: 205f 3cbe 48d2 83be ee68 7fbe 4936 73be
000001f0: 7373 80be c2b2 8d3e 81f2 5ebd 4c07 34be
00000200: a1e8 f4bd 71bf e4bc 6bee 7e3e 8982 333c
00000210: 9c41 123a 9f51 ecbc 38fb 1bbe ff73 8c3e
00000220: 7709 8bbd dd0f 8d3c 6542 813d 882d 783d
00000230: 4e51 8d3b 9dcc b7bd 0c60 7fbd acea b43d
00000240: af92 18be 53bf cd3d 061a d83d 99df 30be
00000250: 38b2 1dbe 2e94 2abe cf95 1b3e d42c 243e
00000260: 1507 7dbd 53af 483e 3dfc f0bd 0bf6 adbd
00000270: 80ab b4bd 6228 02bd 888c 2cbc 56b5 403c
00000280: 9135 b3bd 1ecc 1cbe 8c8d 99bd 4f58 6cbe
00000290: 6591 323e 6fa5 a7bd 3a23 073c 8440 09be
000002a0: a416 c23d 16cd 9e3e 8928 3c3d ecd4 edbd
000002b0: 3bd7 813d a9fc a83d c98e fb3c 0eeb 633e
000002c0: 329e 193e 3655 bbbc c56a 8e3c c31a 1dbe
000002d0: 7c22 88bd 876a 063c 6b88 e1bd 81fc df3d
000002e0: b305 32be 7d91 5cbd eb57 6abc c152 b93d
000002f0: 242a 33bd 75a8 9abd 2fd7 923d 0776 2b3d
00000300: fc71 0dbd 32b9 0bbc 7290 d43c 9d85 283e
00000310: 2998 463e 7a1c e53c 2ea5 e23d 9787 b1bc
00000320: aff6 46be 760a 543d 6d32 473b d655 14be
00000330: 13fc 6ebe d349 4fbe 782e a0be 5bb6 91be
00000340: 4aa5 34bd b22e 3bbe 9165 1d3d fd41 b5bd
00000350: f71e d23d 4f5e aebc e329 cdbd 3222 aa3d
00000360: ca66 d3bd 37f8 24bd 0871 4cbd 632f 44be
00000370: a747 0a3e 90a1 fb3d 5f32 83be a6cd 72be
00000380: 7323 3fbe 5eac 5a3e d238 1b3e 79ba 5e3e
00000390: 71f7 1a3d 607f 723e 2df7 543e 787b 3e3e
000003a0: 409d 36bd e032 983d 311f 033c 34f5 20be
000003b0: 24fb d53d 5d20 ae3e 0d6f 0d3f 7004 5b3e
000003c0: da96 ccbb c127 203e c7df 6e3d bfa5 293d
000003d0: 454c 0fbe aeec c83d bced 673c 1a1c 083d
000003e0: a7a7 0bbd 2ae2 7f3d 4ce6 1a3e bab4 473d
000003f0: 1d25 493e 6ef1 d6bd 66d8 b63d a85e 273e

conv2.bias f4 [16]
1.6647233 -1.361772 -0.18838933 0.40387905 -1.6603143 -0.5705271 0.17340639 -0.7583547
1.5650605 0.28342405 0.023340829 0.049252704 1.6534524 0.828201 -0.61333627 -1.7287955
00000000: a715 d53f 8b4e aebf 22e9 40be 3cc9 ce3e
00000010: 2e85 d4bf 100e 12bf 7291 313e 8923 42bf
00000020: e753 c83f f51c 913e 4435 bf3c 34bd 493d
00000030: 54a4 d33f fb04 543f 9b03 1dbf 2c49 ddbf

fc1.weight f4 [120, 400]
-0.021595225 -0.081634045 -0.013765955 -0.115372114 -0.06836914 -0.009887225 0.0771368 0.061553683
-0.0024338283 -0.05229392 -0.16477142 -0.0042741997 0.079256795 0.043524396 0.042237177 -0.03762071
-0.055393267 0.0893269 0.10176449 0.09155988 0.0038965642 0.0003000591 -0.05504755 0.077568784
0.125854 -0.056708373 -0.03579607 0.030679515 0.038020052 -0.001501465 -0.135821 -0.07456312
0.15554248 0.028240822 0.10251653 0.038127065 -0.04051406 0.0077291285 0.0977493 0.06956422
-0.1721227 -0.08682564 -0.07710486 -0.03145882 0.14649294 -0.065900765 -0.056099467 -0.08017716
0.112809874 0.008272506 0.05544469 0.07015919 0.17492299 0.030891234 0.15817824 0.036250945
0.1777396 0.08440921 0.04977182 0.11442006 0.05257453 0.072160594 0.042279843 0.10711105
0.023364801 0.0298211 0.097148396 0.073308036 -0.08299775 -0.06722844 -0.086215384 -0.21768828
-0.15972568 -0.10031419 0.017594777 -0.008887446 0.075313464 0.07535569 -0.088472 -0.021266827
-0.06853728 0.050884496 0.0074894293 -0.06833363 -0.036471177 -0.16286086 -0.00054083386 -0.047497343
-0.097496465 -0.007848532 -0.1271564 -0.0026973248 -0.029198062 -0.119744845 0.061153736 -0.09294577
-0.0977948 -0.02151298 -0.08047483 -0.0399685 0.042408437 -0.014148004 -0.108071856 0.1063153
-0.034212135 -0.09627003 -0.019417379 0.019904472 0.06132666 -0.033999454 0.007766873 0.042853963
-0.03971402 -0.111747146 0.0361354 -0.006217475 0.016934274 0.080709085 0.0073626093 0.11715547
0.033935353 0.10286427 0.055400196 -0.026718486 -0.14838585 -0.2680213 -0.13399301 -0.12563072
-0.07046856 0.0071299435 -0.2618011 -0.24620809 -0.21618427 -0.18073663 -0.18466474 -0.24277532
-0.20572107 -0.20990008 -0.07353161 -0.11922055 -0.0050783604 -0.0055539017 -0.07316083 -0.023896411
0.013819165 -0.03245017 -0.1765915 0.06939968 -0.069002524 -0.08780501 0.07734321 -0.04873149
-0.06196013 -0.030109156 -0.013654153 -0.070151776 -0.14779866 -0.03275856 0.06473972 -0.025769195
-0.18135758 -0.17963149 -0.08713446 -0.0062614726 -0.01475033 -0.14613485 -0.044901464 -0.037527207
0.0049079866 -0.0019769778 -0.14541937 0.07683875 0.14494883 0.14673576 0.17835 -0.08083517
0.058539674 -0.16640939 -0.056438334 0.1390963 0.11082065 0.055235058 -0.09589491 0.06250192
0.063542895 -0.05804087 -0.08054221 -0.10144877 -0.02392163 -0.09391842 0.024375992 -0.054491285
0.002493377 0.046852995 -0.12461736 0.026344197 -0.06716761 -0.063126855 -0.02398728 0.09534362
-0.0004416963 0.013728505 -0.0013816863 -0.0066533866 -0.017607413 -0.1353549 -0.11536991 0.015887482
0.03133897 -0.019647844 -0.21964517 -0.10812911 -0.04267229 0.03130912 -0.0645534 -0.1810418
-0.16431981 -0.0906808 0.028734664 0.009201202 -0.069548614 -0.18044314 0.122756466 0.12910505
-0.030485833 -0.004721047 -0.061621338 0.015566774 -0.09087565 -0.112628005 0.034405746 0.01660662
0.022413582 0.17351481 0.038054872 -0.08215521 -0.027645487 0.09946356 0.12937815 0.078376606
-0.24875867 4.0934192e-05 -0.05915046 -0.08241316 0.030730732 -0.14793846 -0.1335701 -0.034037154
0.09137886 0.0075057633 -0.050057992 -0.020956261 0.085094795 0.02024352 -0.07215966 0.1987469
00000000: 78e8 b0bc c02f a7bd 9a8a 61bc 3748 ecbd
00000010: 1f05 8cbd 07fe 21bc e6f9 9d3d b71f 7c3d
00000020: dd80 1fbb 2632 56bd d7b9 28be 960e 8cbb
00000030: 6351 a23d a346 323d e400 2d3d 2c18 1abd
00000040: 0de4 62bd 06f1 b63d e769 d03d bf83 bb3d
00000050: 805d 7f3b 4051 9d39 8a79 61bd 62dc 9e3d
00000060: dfdf 003e 0a47 68bd e69e 12bd 9b53 fb3c
00000070: eaba 1b3d cecc c4ba a914 0bbe 8db4 98bd
00000080: 8746 1f3e 4c59 e73c 30f4 d13d 202b 1c3d
00000090: 12f2 25bd a144 fd3b c930 c83d b077 8e3d
000000a0: ef40 30be a4d1 b1bd 27e9 9dbd f7da 00bd
000000b0: 3f02 163e fbf6 86bd 8ec8 65bd ec33 a4bd
000000c0: dd08 e73d 6889 073c f919 633d 9faf 8f3d
000000d0: 031f 333e 9d0f fd3c 7af9 213e df7b 143d
000000e0: 5f01 363e bcde ac3d 89dd 4b3d 1055 ea3d
000000f0: 6458 573d efc8 933d a12d 2d3d 0a5d db3d
00000100: 8a67 bf3c 614b f43c bdf5 c63d 8622 963d
00000110: b9fa a9bd 10af 89bd b191 b0bd ade9 5ebe
00000120: 218f 23be 8771 cdbd ec22 903c a69c 11bc
00000130: f23d 9a3d 1654 9a3d cf30 b5bd c537 aebc
00000140: 465d 8cbd 436c 503d e369 f53b 81f2 8bbd
00000150: cd62 15bd ffc4 26be bfc6 0dba 938c 42bd
00000160: 3aac c7bd 2197 00bc 4a35 02be 9ac5 30bb
00000170: c630 efbc c93c f5bd 577c 7a3d 5a5a bebd
00000180: a448 c8bd fd3b b0bc fdcf a4bd 03b6 23bd
00000190: 78b4 2d3d 08cd 67bc c754 ddbd d6bb d93d
000001a0: 0622 0cbd 3929 c5bd 3211 9fbc b40e a33c
000001b0: aa31 7b3d 0343 0bbd 4181 fe3b a387 2f3d
000001c0: 2bab 22bd b0db e4bd b702 143d f6bb cbbb
000001d0: bfb9 8a3c ce4a a53d 0b42 f13b 35ef ef3d
000001e0: ccff 0a3d 81aa d23d 51eb 623d bae0 dabc
000001f0: 76f2 17be 163a 89be 7735 09be 57a5 00be
00000200: d251 90bd 4da2 e93b cb0a 86be f91d 7cbe
00000210: 695f 5dbe 0613 39be c118 3dbe 189a 78be
00000220: 8ba8 52be 0cf0 56be be97 96bd e729 f4bd
00000230: 6068 a6bb 81fd b5bb 58d5 95bd 68c2 c3bc
00000240: c769 623c 78ea 04bd 67d4 34be 6b21 8e3d
00000250: 3251 8dbd 1dd3 b3bd 1e66 9e3d ac9a 47bd
00000260: e8c9 7dbd 7aa7 f6bc abb5 5fbc bcab 8fbd
00000270: 8858 17be d72d 06bd 4296 843d eb19 d3bc
00000280: cdb5 39be 51f1 37be 8d73 b2bd 0a2d cdbb
00000290: 5eab 71bc 60a4 15be 99ea 37bd 21b6 19bd
000002a0: 2dd3 a03b 2f90 01bb d1e8 14be a25d 9d3d
000002b0: 776d 143e e641 163e 62a1 363e e98c a5bd
000002c0: 4cc7 6f3d 3967 2abe e22b 67bd 436f 0e3e
000002d0: f0f5 e23d 283e 623d 8d64 c4bd 0201 803d
000002e0: c722 823d 43bc 6dbd 50f3 a4bd 5fc4 cfbd
000002f0: 4bf7 c3bc 4d58 c0bd 29b0 c73c 4132 5fbd
00000300: ed67 233b ede8 3f3d 6337 ffbd c9cf d73c
00000310: 2c8f 89bd a748 81bd f980 c4bc 8443 c33d
00000320: 7993 e7b9 86ed 603c b319 b5ba a704 dabb
00000330: 6c3d 90bc 7a9a 0abe 0f47 ecbd 7726 823c
00000340: 4b5d 003d 84f4 a0bc aaea 60be cb72 ddbd
00000350: 24c9 2ebd fe3d 003d 9334 84bd 0663 39be
00000360: 7443 28be dbb6 b9bd f564 eb3c a3c0 163c
00000370: 816f 8ebd 16c6 38be be67 fb3d 1d34 043e
00000380: 6dbd f9bc 03b3 9abb a866 7cbd c80b 7f3c
00000390: 031d babd 83a9 e6bd 0aed 0c3d 9b0a 883c
000003a0: b09c b73c dead 313e 6ddf 1b3d fe40 a8bd
000003b0: ca78 e2bc 8db3 cb3d b57b 043e ea83 a03d
000003c0: 98ba 7ebe c1b0 2b38 c147 72bd 3bc8 a8bd
000003d0: 04bf fb3c 2e7d 17be 9ac6 08be 8b6a 0bbd
000003e0: d724 bb3d e8f2 f53b 9c09 4dbd 77ac abbc
000003f0: 2e46 ae3d bdd5 a53c 72c8 93bd 4f84 4b3e

fc1.bias f4 [120]
0.0533731 -0.2301083 0.015945032 0.018807156 -0.076306574 0.2514433 0.19417976 -0.18459497
0.038199622 -0.14746402 -0.14895588 -0.058675457 -0.03982659 0.43562353 -0.017363396 0.2138825
0.16017283 0.04084632 -0.07726076 -0.06441042 -0.093806975 0.089199424 0.13252145 0.040293824
0.024472628 0.30186388 -0.087488696 -0.3073624 0.16613267 0.25702408 0.23039031 0.026954852
-0.10105572 0.07020522 0.11597372 0.014631125 -0.060935132 -0.04525462 -0.057205867 -0.035378247
0.2308754 0.09976511 -0.14281158 0.13590647 0.08219139 0.28150725 0.039844032 0.27245477
0.20349665 0.16957024 0.036736973 0.057277158 0.15895471 -0.03388168 -0.038573742 0.14853169
-0.021975104 0.35615847 -0.07178111 0.19351752 -0.13336286 0.08644203 0.12592562 -0.423992
-0.098742664 0.19577505 -0.06173071 0.08506325 0.093988225 0.05266969 0.04885233 0.21411267
-0.3084922 0.05165105 -0.0026047595 0.11823053 -0.11251869 0.011202227 0.36037424 0.061248574
-0.0348814 -0.24670915 -0.119665265 -0.08725589 -0.09851884 -0.12323131 0.20326784 0.024387676
-0.0828317 0.018842896 -0.028017767 0.023918483 0.26457942 -0.02743758 -0.16257289 -0.07648981
0.006207375 0.010768649 0.11185589 0.02365035 -0.28358856 -0.07502197 -0.08239376 -0.008379341
-0.047697213 -0.053866323 -0.02910744 0.15235749 -0.1122053 -0.12160487 0.12424683 0.3520505
-0.38533765 -0.13975216 0.32890785 0.4109502 -0.013390757 0.10879248 0.073612496 0.05469139
00000000: c09d 5a3d 83a1 6bbe 289f 823c 7711 9a3c
00000010: 9f46 9cbd 2dbd 803e 0fd7 463e 7706 3dbe
00000020: 3577 1c3d cf00 17be e487 18be ad55 70bd
00000030: 3521 23bd 0c0a df3e ae3d 8ebc 0404 5b3e
00000040: 5904 243e 794e 273d e43a 9ebd 9ce9 83bd
00000050: df1d c0bd 30ae b63d b4b3 073e 230b 253d
00000060: d27a c83c e78d 9a3e 462d b3bd 9b5e 9dbe
00000070: af1e 2a3e a998 833e 70eb 6b3e 6cd0 dc3c
00000080: 4df6 cebd c1c7 8f3d a183 ed3d 63b7 6f3c
00000090: 1e97 79bd e95c 39bd b350 6abd c8e8 10bd
000000a0: 9a6a 6c3e a651 cc3d 333d 12be 112b 0b3e
000000b0: f653 a83d b821 903e 7f33 233d 317f 8b3e
000000c0: 6d61 503e d2a3 2d3e 8279 163d 749b 6a3d
000000d0: 06c5 223e 84c7 0abd 80ff 1dbd b118 183e
000000e0: 2205 b4bc 675a b63e f901 93bd 7529 463e
000000f0: 4690 08be 8508 b13d a5f2 003e 7b15 d9be
00000100: 9839 cabd 4179 483e 57d9 7cbd a435 ae3d
00000110: e67c c03d 2cbc 573d 6119 483d 5a40 5b3e
00000120: b1f2 9dbe 0d90 533d 9db4 2abb d922 f23d
00000130: 3370 e6bd 8c89 373c f982 b83e c9df 7a3d
00000140: cddf 0ebd 53a1 7cbe 1013 f5bd 37b3 b2bd
00000150: 3fc4 c9bd b260 fcbd 7225 503e aac8 c73c
00000160: aba3 a9bd 6b5c 9a3c 8485 e5bc b2f0 c33c
00000170: f476 873e c7c4 e0bc 8279 26be b1a6 9cbd
00000180: 3c67 cb3b fd6e 303c b314 e53d 61be c13c
00000190: 8532 91be 1ea5 99bd 0fbe a8bd 8149 09bc
000001a0: 275e 43bd efa2 5cbd ba72 eebc 9a03 1c3e
000001b0: e4cb e5bd f90b f9bd 1f75 fe3d f73f b43e
000001c0: fa4a c5be 311b 0fbe 9c66 a83e 1168 d23e
000001d0: e864 5bbc 97ce de3d 26c2 963d 1404 603d

fc2.weight f4 [84, 120]
0.1512427 0.111963466 -0.0060617616 -0.123571746 0.022467006 0.14777772 -0.076424934 -0.028882071
-0.07423769 0.14978056 -0.049257636 -0.114691526 -0.017490156 -0.08483658 -0.006340028 -0.05576631
-0.19505088 0.0445755 0.072824456 0.016677395 0.07813688 0.075011835 -0.08877575 0.009146144
0.09756279 -0.017589623 -0.0023730393 -0.03734725 -0.11344785 0.024696467 -0.019719606 -0.043249656
0.15769963 -0.0013999923 -0.078184895 0.008120968 -0.056221716 -0.061392277 -0.0018814885 -0.08811655
-0.027380697 0.03794063 -0.18288794 0.004238211 -0.11099457 -0.06733795 -0.08389735 0.014571293
-0.1075058 -0.18327904 -0.1830388 0.031876568 -0.0073755756 -0.0050371974 0.004750898 -0.08450203
0.04274606 -0.10582009 -0.084059075 0.10273723 -0.07785257 -0.056252073 -0.0009610915 0.07059193
-0.06699645 -0.25461233 -0.069964506 -0.037675727 -0.031087346 -0.02044087 -0.078696504 -0.04897507
-0.045541808 -0.023593146 0.055942792 -0.061833285 -0.1282043 0.0024033752 -0.0073783332 0.15650013
0.11340211 -0.014076013 0.022317387 0.03464447 -0.049860343 -0.12929706 -0.1156841 -0.06628833
-0.05852955 -0.12157217 0.0555604 0.018138237 -0.010913028 -0.028459366 0.15298717 0.010320283
-0.060984448 -0.076564774 0.09339192 -0.11760434 -0.078873 0.00044871448 0.09220603 -0.06960446
0.07121586 -0.016676715 -0.055696703 -0.06133653 -0.16869265 0.00048671142 -0.12488184 -0.039690416
-0.034047414 -0.027984984 0.088212326 0.02216423 0.02631034 -0.016995521 -0.019033615 -0.0074103586
0.033403084 -0.12286795 0.064952485 0.041022755 -0.07736879 -0.16129094 0.001512124 0.0091140745
-0.17674316 -0.24773924 -0.15711862 -0.09816323 -0.06502742 0.086653754 0.08009486 0.123631835
-0.068161696 0.178831 0.15733117 -0.14663395 -0.094907 -0.084029615 0.16143398 0.022503288
-0.015351382 -0.08901896 0.00888151 -0.25396633 0.042884067 -0.05632771 0.18369976 0.011627633
0.059302397 0.008257521 -0.0985927 0.30980512 0.036298845 -0.034564886 -0.1128934 0.05938354
0.03614484 0.04195716 0.026643425 0.032627326 -0.12779133 0.1526993 0.10890483 0.086935066
-0.037767265 -0.0368865 -0.10995157 -0.081100605 0.122674055 -0.0988375 -0.14458506 0.094990134
0.04826907 0.061305076 -0.10315645 0.1274868 0.006914307 0.1405324 0.0768232 -0.19248386
-0.022013709 -0.14067274 -0.052830044 -0.21056451 -0.033326767 -0.038556352 0.045817405 -0.09425112
0.026737504 0.011192711 -0.21759753 0.01078384 0.010717841 -0.16677034 0.015711963 0.083215386
0.07232228 -0.14003637 0.021191224 -0.05281604 -0.108503744 -0.20331416 -0.111303166 -0.052786622
-0.13368197 0.10006309 -0.2047148 -0.034382433 -0.020801986 0.023000926 -0.07078514 0.050822716
-0.0075538103 0.037469838 0.07911813 0.112985134 -0.21337494 -0.013261764 0.122910514 0.015234587
0.03126393 -0.02657051 -0.06600212 0.07193137 -0.080919124 -0.0836683 0.10029116 0.16260113
-0.120990366 -0.019364104 -0.085201524 0.040424857 0.05456342 -0.028285619 0.015167991 0.004964317
-0.023837317 0.13621838 -0.06378588 -0.15984315 0.073418505 -0.11648132 -0.12233196 -0.007539238
-0.003269237 0.029764 0.025380963 -0.08001598 -0.13795137 -0.027067173 -0.0125342375 0.05042786
00000000: 5edf 1a3e 1a4d e53d bea1 c6bb 2f13 fdbd
00000010: ba0c b83c 0b53 173e ad84 9cbd 189a ecbc
00000020: ee09 98bd 1360 193e 60c2 49bd 64e3 eabd
00000030: 8447 8fbc cdbe adbd 02c0 cfbb 376b 64bd
00000040: 6bbb 47be cd94 363d fd24 953d 089f 883c
00000050: 3b06 a03d ce9f 993d 0fd0 b5bd b5d9 153c
00000060: 00cf c73d 1d18 90bc fe84 1bbb 6ef9 18bd
00000070: 5957 e8bd 3f50 ca3c 038b a1bc 8d26 31bd
00000080: 037c 213e f27f b7ba 671f a0bd cf0d 053c
00000090: be48 66bd 7876 7bbd 479c f6ba 7376 b4bd
000000a0: 7c4d e0bc a267 1b3d fa46 3bbe b1e0 8a3b
000000b0: 1f51 e3bd 7be8 89bd 60d2 abbd 6fbc 6e3c
000000c0: 002c dcbd 80ad 3bbe 866e 3bbe 0191 023d
000000d0: d0ae f1bb 130f a5bb 6cad 9b3b 660f adbd
000000e0: 7e16 2f3d 34b8 d8bd 2a27 acbd e667 d23d
000000f0: 2b71 9fbd 9368 66bd c2f1 7bba 8092 903d
00000100: 6f35 89bd 8c5c 82be 8d49 8fbd dd51 1abd
00000110: e4aa febc 9d73 a7bc a22b a1bd 159a 48bd
00000120: 0c8a 3abd 6a46 c1bc 4524 653d e644 7dbd
00000130: fd47 03be f281 1d3b f2c5 f1bb 9241 203e
00000140: 5e3f e83d 149f 66bc f4d2 b63c 5ce7 0d3d
00000150: 5c3a 4cbd 7366 04be c9eb ecbd 2dc2 87bd
00000160: aebc 6fbd d4fa f8bd 4d93 633d a496 943c
00000170: 8fcc 32bc 9e23 e9bc aba8 1c3e 6716 293c
00000180: d4ca 79bd fecd 9cbd 4344 bf3d 8bda f0bd
00000190: 2b88 a1bd 7041 eb39 84d6 bc3d c88c 8ebd
000001a0: 9fd9 913d 9b9d 88bc 3a22 64bd 033c 7bbd
000001b0: c4bd 2cbe 4d2d ff39 0dc2 ffbd 6b92 22bd
000001c0: 4d75 0bbd c440 e5bc aaa8 b43d c291 b53c
000001d0: c888 d73c 313a 8bbc 62ec 9bbc 98d2 f2bb
000001e0: acd1 083d 31a2 fbbd cf05 853d 7a07 283d
000001f0: 8773 9ebd 7429 25be 7632 c63a 3353 153c
00000200: 29fc 34be 5baf 7dbe b4e3 20be ce09 c9bd
00000210: 192d 85bd 8677 b13d c608 a43d b032 fd3d
00000220: 5c98 8bbd 791f 373e 6c1b 213e 3627 16be
00000230: 9a5e c2bd b817 acbd f34e 253e d158 b83c
00000240: 5d84 7bbc 934f b6bd c183 113c e007 82be
00000250: 34a7 2f3d e3b7 66bd ca1b 3c3e d481 3e3c
00000260: 12e7 723d 8e4a 073c f8ea c9bd c79e 9e3e
00000270: 19ae 143d e993 0dbd a834 e7bd 283c 733d
00000280: 9d0c 143d 45db 2b3d 5043 da3c 3ba4 053d
00000290: bbdb 02be 355d 1c3e 7f09 df3d 030b b23d
000002a0: d9b1 1abd 4c16 17bd 4a2e e1bd 1318 a6bd
000002b0: 893c fb3d 516b cabd 1b0e 14be 308a c23d
000002c0: cab5 453d 081b 7b3d b043 d3bd e68b 023e
000002d0: 6991 e23b bae7 0f3e 7b55 9d3d 7d1a 45be
000002e0: 1856 b4bc 840c 10be 5164 58bd 399e 57be
000002f0: a681 08bd 44ed 1dbd 08ab 3b3d bb06 c1bd
00000300: 9c08 db3c a261 373c e3d1 5ebe b4ae 303c
00000310: e299 2f3c d8c5 2abe 60b6 803c d46c aa3d
00000320: b41d 943d b265 0fbe 3899 ad3c a255 58bd
00000330: 3637 debd 9631 50be eaf2 e3bd c936 58bd
00000340: ede3 08be e1ed cc3d c2a0 51be 98d4 0cbd
00000350: ed68 aabc 706c bc3c cdf7 90bd 7b2b 503d
00000360: f485 f7bb f979 193d b008 a23d c064 e73d
00000370: f67e 5abe df47 59bc 82b8 fb3d 7d9a 793c
00000380: 9b0e 003d 66aa d9bc 1f2c 87bd c150 933d
00000390: edb8 a5bd 495a abbd 7465 cd3d e980 263e
000003a0: ccc9 f7bd 78a1 9ebc 237e aebd 8994 253d
000003b0: e57d 5f3d 3eb7 e7bc 2a83 783c b6ab a23b
000003c0: 7a46 c3bc d57c 0b3e 2ca2 82bd ecad 23be
000003d0: 715c 963d c28d eebd 2e89 fabd b60b f7bb
000003e0: b240 56bb a2d3 f33c bdeb cf3c 6bdf a3bd
000003f0: 2043 0dbe fabb ddbc 675c 4dbc 728d 4e3d

fc2.bias f4 [84]
-0.1503772 0.2113731 -0.05895407 -0.107261926 0.47419026 0.30598077 0.6510124 0.29606816
0.19985332 0.003931735 0.075624734 0.1107346 0.02162306 0.22970481 0.6409901 -0.03146332
0.15563454 -0.09835622 0.3628637 0.16627988 -0.100009196 -0.13885722 -0.23476598 0.03371389
0.21678756 0.042471368 0.04469583 -0.14292066 0.8070589 -0.011815476 -0.03422614 0.041026693
0.1086463 0.40623507 0.3639905 -0.08514844 -0.030838732 0.0046266513 0.053230178 0.11293585
0.019455595 0.24318938 0.10791385 0.05663045 0.16113618 0.3168673 -0.03194181 0.066579945
-0.0863752 0.052893564 0.5278466 0.50785154 -0.06499312 -0.010117248 -0.06295544 -0.038690396
0.33915475 -0.10967381 0.12950177 0.3503957 0.74609125 -0.0347986 0.14871988 -0.14413993
0.5847915 0.024649387 0.4240009 0.052725393 0.60940945 0.13480833 0.18734547 0.7867813
-0.07187083 0.79089594 -0.1237306 0.49065346 0.3925644 0.19794834 0.35464665 -0.004623911
0.38233927 0.13876547 -0.015870534 0.69215906
00000000: 7bfc 19be 3172 583e d379 71bd 24ac dbbd
00000010: 11c9 f23e 83a9 9c3e c0a8 263f 3f96 973e
00000020: 59a6 4c3e c9d5 803b 24e1 9a3d d2c8 e23d
00000030: d822 b13c bd37 6b3e ed17 243f afdf 00bd
00000040: a95e 1f3e fc6e c9bd 45c9 b93e 4645 2a3e
00000050: 9fd1 ccbd 9630 0ebe 7e66 70be 9317 0a3d
00000060: 8ffd 5d3e 75f6 2d3d fa12 373d cb59 12be
00000070: 699b 4e3f b395 41bc b530 0cbd 9b0b 283d
00000080: f481 de3d 0bfe cf3e f65c ba3e 4e62 aebd
00000090: 82a1 fcbc 2a9b 973b e307 5a3d e94a e73d
000000a0: 5761 9f3c a306 793e f001 dd3d 55f5 673d
000000b0: e200 253e 6e3c a23e 6ad5 02bd 115b 883d
000000c0: 7be5 b0bd eca6 583d f420 073f 8f02 023f
000000d0: 1d1b 85bd d0c2 25bc c8ee 80bd d279 1ebd
000000e0: b1a5 ad3e aa9c e0bd 1d9c 043e 1167 b33e
000000f0: d6ff 3e3f fa88 0ebd 064a 183e 6b99 13be
00000100: e5b4 153f 83ed c93c a516 d93e 95f6 573d
00000110: 4202 1c3f 320b 0a3e 7ed7 3f3e 806a 493f
00000120: 0431 93bd 2878 4a3f 7866 fdbd ee36 fb3e
00000130: 33fe c83e f8b2 4a3e 3f94 b53e 2d84 97bb
00000140: f9c1 c33e 8918 0e3e ec02 82bc 5631 313f

fc3.weight f4 [10, 84]
0.19526203 0.22820418 0.047813766 -0.04391933 -0.0416388 0.20948538 -0.13888164 0.08847522
-0.1317942 0.039564878 -0.1418148 -0.1373121 -0.14901808 -0.25635463 -0.019090751 0.13297315
0.07494163 0.08695646 0.28736955 0.11288458 -0.076674506 0.013134022 0.14369062 0.13994882
0.21799283 -0.09686007 0.18017046 0.15187213 -0.16854142 -0.025124677 0.19712801 -0.04769771
-0.07891115 -0.010908581 -0.032478817 -0.05803293 0.022799352 -0.00036649464 0.15845326 0.16552566
-0.0018029362 -0.07723102 -0.13058405 -0.03367735 -0.13682882 0.24226215 0.055417713 -0.12125336
-0.06178899 -0.021776961 -0.23625652 0.07784058 -0.15045807 0.105222695 -0.061850265 0.008743628
0.22414458 0.2278961 0.17723842 -0.11355182 0.13479461 0.14070293 -0.062354125 0.13342188
-0.007927604 0.16260052 0.19782448 -0.24882747 0.08141673 0.3044525 0.25155908 -0.35211736
-0.099195205 -0.12960367 0.1878203 -0.32238144 -0.09137772 -0.114947304 -0.15674055 -0.0686665
-0.013980748 0.24223879 -0.24407263 0.02484864 -0.013113103 -0.12440501 0.31164262 0.114023246
-0.08021212 0.10503564 -0.09119833 0.21893996 0.2533684 -0.11230624 0.022875441 0.21081002
0.11100925 -0.18520275 -0.30161408 0.042876165 -0.038335048 0.10810109 -0.079538204 -0.37415662
0.14332952 -0.075783715 0.046922725 -0.20644096 -0.020081645 0.09503972 -0.068449154 0.03925789
-0.10492201 0.10932627 -0.2039403 0.016208803 0.17766732 -0.21861325 -0.127766 0.02789544
0.027875973 -0.17716233 0.17681614 0.267702 -0.24074306 0.1937558 0.14338358 0.14510772
0.022192867 0.29534894 -0.064256 0.0010502142 -0.046528257 0.1597046 -0.06480366 -0.32053137
0.14994465 0.07740179 0.023768544 0.09325682 0.023980036 0.005929769 -0.197359 0.29300117
-0.15939304 0.3001325 -0.114697754 0.3064821 -0.23838428 -0.26978222 0.00014471474 0.07866754
0.19445258 0.20924379 -0.054936886 -0.06123065 -0.065867744 -0.20897822 -0.05600553 -0.11335577
-0.3670568 -0.30045104 0.13518909 0.18461509 0.15116674 -0.18041539 -0.14992975 -0.22954687
0.20428286 0.21419382 -0.042926706 0.17317787 0.041654952 -0.11862178 -0.10984599 -0.027442137
-0.094936065 0.21319066 -0.14452353 -0.18795022 0.07699868 0.1322932 0.16707212 0.0788776
0.2768072 -0.09034735 0.021391613 0.056082472 0.03772147 0.19577236 0.19387317 0.19624235
0.0050418703 0.04635666 0.025895072 0.041559413 0.058756977 -0.029058626 0.015529016 0.09936486
0.09779347 -0.065673605 -0.0032215295 0.25388998 0.08679773 0.1745326 -0.00080861966 -0.11927979
-0.11832063 0.17784801 -0.17884584 -0.09328896 -0.16928641 -0.33377653 0.19557728 -0.21411239
0.07317997 -0.12767634 0.14230235 0.21848713 0.030796746 -0.04010956 0.18542887 0.08400539
0.04144722 0.14200635 -0.22699076 -0.20109531 -0.048077025 -0.15695547 -0.050779458 -0.15888745
0.06085934 0.21217388 0.035087038 0.11208968 -0.12017831 0.13122322 0.06606457 0.04948017
0.07464645 -0.0056444663 -0.057728022 0.12404721 0.14290117 -0.17806919 0.12393034 0.058776148
0.23593277 0.23083484 -0.13552243 0.21095167 -0.033779927 -0.09378962 -0.26035175 -0.1442891
00000000: c5f2 473e 5bae 693e 5ed8 433d c1e4 33bd
00000010: 728d 2abd 5683 563e fd36 0ebe 7f32 b53d
00000020: 0ff5 06be c80e 223d e637 11be 8b9b 0cbe
00000030: 3298 18be ea40 83be 3564 9cbc 1d2a 083e
00000040: ff7a 993d 3a16 b23d 1a22 933e 0830 e73d
00000050: 8607 9dbd 1530 573c a223 133e be4e 0f3e
00000060: 8339 5f3e 935e c6bd 9b7e 383e 5e84 1b3e
00000070: 1f96 2cbe 44d2 cdbc eddb 493e ad5e 43bd
00000080: 2b9c a1bd e8b9 32bc 8208 05bd f0b3 6dbd
00000090: b5c5 ba3c 1426 c0b9 9241 223e 8f7f 293e
000000a0: 8050 ecba 4c2b 9ebd d3b7 05be 43f1 09bd
000000b0: db1c 0cbe 9213 783e affd 623d ae53 f8bd
000000c0: 7416 7dbd 9965 b2bc 3bed 71be e26a 9f3d
000000d0: ae11 1abe ff7e d73d b456 7dbd 6f41 0f3c
000000e0: 2886 653e 985d 693e fd7d 353e db8d e8bd
000000f0: 9907 0a3e 6e14 103e 0a67 7fbd bf9f 083e
00000100: c8e2 01bc c080 263e 8092 4a3e a1cc 7ebe
00000110: d1bd a63d 33e1 9b3e 5acc 803e ba48 b4be
00000120: db26 cbbd d3b6 04be f753 403e 2e0f a5be
00000130: 3e24 bbbd 7e69 ebbd 9880 20be 06a1 8cbd
00000140: 820f 65bc 720d 783e 2dee 79be 608f cb3c
00000150: 57d8 56bc 0ec8 febd 9f8f 9f3e 0585 e93d
00000160: 4146 a4bd ed1c d73d 31c6 babd cc31 603e
00000170: 81b9 813e d000 e6bd 4765 bb3c 95de 573e
00000180: d158 e33d caa5 3dbe 296d 9abe eb9e 2f3d
00000190: 3605 1dbd 1b64 dd3d ede4 a2bd 7591 bfbe
000001a0: f9c4 123e 7e34 9bbd 0b32 403d 4265 53be
000001b0: 4382 a4bc 2fa4 c23d 122f 8cbd e2cc 203d
000001c0: 5ae1 d6bd 74e6 df3d bad5 50be 53c8 843c
000001d0: 6cee 353e 27dc 5fbe 17d5 02be fa84 e43c
000001e0: 275c e43c 0b6a 35be 4a0f 353e 3d10 893e
000001f0: 5985 76be ec67 463e 25d3 123e 1e97 143e
00000200: d1cd b53c fa37 973e a698 83bd 57a7 893a
00000210: 6a94 3ebd 9a89 233e c8b7 84bd b01c a4be
00000220: 178b 193e d484 9e3d 40b6 c23c 6ffd be3d
00000230: c871 c43c 824e c23b 7a18 4abe 4004 963e
00000240: ee37 23be f8aa 993e a8e6 eabd 39eb 9c3e
00000250: 021b 74be e520 8abe 91be 1739 721c a13d
00000260: 941e 473e 0144 563e 8005 61bd fdcc 7abd
00000270: abe5 86bd 63fe 55be 0e66 65bd 1227 e8bd
00000280: deee bbbe b8d4 99be 026f 0a3e bd0b 3d3e
00000290: 74cb 1a3e d0be 38be 2f87 19be 560e 6bbe
000002a0: 872f 513e a055 5b3e ead3 2fbd 8a55 313e
000002b0: 629e 2a3d faef f2bd eff6 e0bd 55ce e0bc
000002c0: d76d c2bd a74e 5a3e fafd 13be 0676 40be
000002d0: 7cb1 9d3d de77 073e f414 2b3e 948a a13d
000002e0: acb9 8d3e 0808 b9bd 773d af3c bcb6 653d
000002f0: d481 1a3d 8d78 483e b086 463e c1f3 483e
00000300: 4636 a53b 7be0 3d3d e721 d43c 343a 2a3d
00000310: 28ab 703d 5b0c eebc 6a6d 7e3c ce7f cb3d
00000320: f147 c83d e27f 86bd 4c20 53bb defd 813e
00000330: 02c3 b13d adb8 323e 8cf9 53ba f648 f4bd
00000340: 1652 f2bd ca1d 363e 5d23 37be 480e bfbd
00000350: 6b59 2dbe c2e4 aabe 6945 483e 4740 5bbe
00000360: 61df 953d 96bd 02be b5b7 113e 17bb 5f3e
00000370: 7549 fc3c ec49 24bd 11e1 3d3e 050b ac3d
00000380: 8fc4 293d 1d6a 113e 4470 68be eeeb 4dbe
00000390: 6aec 44bd efb8 20be 1ffe 4fbd 64b3 22be
000003a0: a547 793d 1c44 593e 6db7 0f3d 468f e53d
000003b0: 0c20 f6bd 615f 063e dc4c 873d b8ab 4a3d
000003c0: 3de0 983d 37f5 b8bb 3874 6cbd 770c fe3d
000003d0: af54 123e c557 36be 31cf fd3d 42bf 703d
000003e0: 5c98 713e f85f 6c3e 64c6 0abe b703 583e
000003f0: d25c 0abd c614 c0bd d34c 85be 86c0 13be

fc3.bias f4 [10]
-0.3496941 -0.8444237 -0.30213618 0.651509 0.7860828 -0.025304593 0.1363784 -0.15865158
0.20810238 -0.0787656
00000000: 1b0b b3be 272c 58bf 98b1 9abe 4bc9 263f
00000010: b93c 493f 944b cfbc c7a6 0b3e 8f75 22be
00000020: ca18 553e dc4f a1bd
